so3_experiments/results/cfm/model.pt (torch, 79227 bytes, 8 tensors)

net.0.weight f8 [64, 10]
0	0x3fd06af0397e06ed	0.2565270005653549
1	0x3fd07346ab3106ce	0.25703589170380503
2	0xbfc528b8eba7488a	-0.1653052473689665
3	0x3fc7d7e23483a989	0.18627574505019265
4	0xbfb542900681e091	-0.08304691466207915
5	0x3fa3d29ae538ae04	0.03871616409409387
6	0xbfaffd1ac5e38edd	-0.062477909714088155
7	0x3f9c35abd8aa2d12	0.027548489665190586
8	0x3fc266de8c1747ee	0.14376432266595834
9	0x3fbed6cf0364b9eb	0.12046521981094542
10	0xbfcbf3de6eaddd3f	-0.2183797874856541
11	0xbfc8dfa7b1df00c2	-0.19432541070091786
12	0xbfc7c9b622e4a254	-0.18584324554219
13	0x3fd59d023d908d99	0.3377080537049664
14	0x3fca198d3a5ee53b	0.2039047751439201
15	0xbfd15e8007c289b9	-0.27139282949260807
16	0x3fd213918686dc97	0.28244436395056866
17	0xbfb3f1413db34917	-0.07790000683170138
18	0xbfd5e1a5c1143763	-0.3418974290406053
19	0x3fe38dc2ec989bc3	0.6110548611658192
20	0xbfc238d5fd882c9e	-0.1423594940136796
21	0xbfb5c2664e4a5b04	-0.08499755298030826
22	0x3fbe02f22c0ff9db	0.11723245216123905
23	0x3fcb113f0894c1b9	0.2114638130092439
24	0x3fc5b678f1faf92d	0.1696311170143842
25	0xbfaa404c94c902b2	-0.0512718135473781
26	0xbfd2e6a510aa7577	-0.2953274405243386
27	0xbf92b620bb685eea	-0.018272887648065707
28	0x3fabbfc67ee40488	0.05419750498732251
29	0x3fc96ff6bf7e8740	0.19872936582856404
30	0xbfdb0b3b13f88624	-0.4225604720141709
31	0xbfd03582c82d568f	-0.25326604412598724
32	0x3fb1b22507de39b3	0.06912452165690901
33	0x3fc154cfbe4f0816	0.13540074150483922
34	0xbfd33f8bcb0f23f5	-0.3007535441398084
35	0xbfb30441a2145efb	-0.074283697195252
36	0xbfcef3c6e8d56efb	-0.24181448334535802
37	0x3fcb5ffcb5ee79b5	0.21386679538131906
38	0xbfd03ae271779d10	-0.25359402733597936
39	0xbfcf002021ea24cf	-0.24219133048999317
40	0x3fd225922f6d81e5	0.28354315406434544
41	0x3f811c3b357ccf1a	0.008354628152666122
42	0x3fb2034c0231d836	0.07036280683118509
43	0x3fd34b1aa4098319	0.3014589883733137
44	0x3fdaa45d93cc4377	0.4162820762003813
45	0x3fb3fe0303150f7e	0.07809466195345569
46	0x3f798bf9dbc26c73	0.006237007150185925
47	0x3fad31a3f17796b5	0.05701935122105565
48	0xbfd0efb995699a07	-0.26463164893212404
49	0x3fdf2e5f5142666b	0.48720534263120524
50	0xbfe07813942c4387	-0.5146577733995493
51	0xbf9fcd5ffef3c8df	-0.031056880889942625
52	0xbfc3369086f2a85c	-0.1501026781964495
53	0x3f89ccd596ac8d58	0.012597721729952369
54	0xbfd2d25642e5e13a	-0.29408794911389047
55	0x3fa1460c45fa3cd7	0.03373754839150827
56	0xbfb14986f099c3d2	-0.06752818464316526
57	0xbfa870c92b214492	-0.04773548747528723
58	0xbfd8257d9cdcb165	-0.3772882491928356
59	0xbfbb189c18eddd1a	-0.10584426506635616
60	0x3fba0a4466210872	0.10171916478523871
61	0xbfc9764f123059cf	-0.1989230002224773
62	0xbfcac9e73be50338	-0.20928659843959863
63	0xbf628113b96c0228	-0.002258814357787981
64	0x3fba8c32038d8f21	0.10370171152822795
65	0xbfc602615a608c85	-0.17194764054247372
66	0xbfc1b4ca04f70d2d	-0.1383297466510184
67	0xbfb06cc1434c3fbe	-0.06415946858419283
68	0xbfc82720690b4f3c	-0.18869404915914767
69	0x3fe205847419543d	0.5631735103185133
70	0xbfccd58fdc2f0461	-0.22526739360003759
71	0x3fd7515b7b91f063	0.36434065883054795
72	0x3fbd280521e5d347	0.11389190747816001
73	0x3fb958ec90064987	0.09901312366699787
74	0xbfb66ded80530732	-0.08761486418646028
75	0xbfb7ea020133f9ed	-0.09341442613001734
76	0x3fcbb0358a8bdacb	0.21631497635799798
77	0x3fa4decb9d000bc4	0.04076229373460863
78	0x3fc79ac971814fc1	0.1844112209533915
79	0x3fd383cc9cea2c33	0.3049193889971235
80	0x3fd00d9e9bb77f9b	0.2508312721893106
81	0x3fc34843850da007	0.15064281460513504
82	0x3fccb694ae6cfb8d	0.22432192341690574
83	0x3fb4429c504fb1b7	0.0791413971016429
84	0x3fc21c32e3d9321d	0.14148555875216653
85	0x3fa11ef09228b0c9	0.03343917640845146
86	0x3fab3d12475d6f60	0.053200312816186424
87	0xbfc9736e08009f9c	-0.19883513823264998
88	0xbfb0621b2b4cc9d9	-0.06399698073509032
89	0x3fe3a920a0a515f7	0.6143954408259437
90	0x3fbf628fd25fdef6	0.12259768377395716
91	0x3fce6a0886dad7c5	0.23761087975225173
92	0x3fc310564ce21b47	0.14893606905044462
93	0x3fd64d70078f7393	0.3484764169532408
94	0xbfa034b6f6df43c3	-0.03165218127799776
95	0xbfbf89791e29e10f	-0.12319142328658848
96	0xbfd447a6f4bedb37	-0.31687330151492027
97	0x3f94e85c59ff3979	0.02041763591096799
98	0x3fa721af4a15eaf2	0.04517886905064995
99	0x3fdb2b118e5d942a	0.4245036974228379
100	0x3fb76df422ea8b85	0.09152150967069701
101	0xbfc162e4a2cb15f7	-0.13583047818080704
102	0x3fd3351d57978fef	0.30011685899648816
103	0x3fc3ab122039e3d0	0.1536581666330492
104	0x3fccd6e373002844	0.22530787577881217
105	0x3f99e2b0227fa481	0.025278808694484404
106	0xbf9f4d64877c10eb	-0.030568667191816095
107	0x3fcd649e2bb02edf	0.22963311322415955
108	0x3fd1e5b1b1b13962	0.2796444163585844
109	0xbfdbbc2ed8dac2fd	-0.4333607785911651
110	0xbfb1d981cb06fe1e	-0.06972514349671896
111	0x3fa999394c92040c	0.04999713000962211
112	0x3faa55924907605b	0.05143410817589774
113	0xbfd05eb330e32ffb	-0.2557800271431458
114	0xbfc089c7425e9327	-0.12920466175742115
115	0x3fb7ac1ab8dd6859	0.09246985448172164
116	0xbfd12d5f8651f6b9	-0.26839435689167207
117	0xbfd0cb9db3330d5f	-0.26242773532813674
118	0x3fce2794e658b14c	0.23558293578515543
119	0x3fced4f537df14af	0.24087395885559235
120	0x3f6b447f3152b244	0.0033285602790640596
121	0x3fc896c333017be2	0.19210090628163728
122	0xbfc1e6641aa46be2	-0.13984347630397936
123	0x3fc1fc4b7b46ce56	0.14051192778935
124	0xbfd3850e27d44ee7	-0.3049960507353106
125	0xbfb335ed194e0b36	-0.07504159801287077
126	0xbfcfd2d3a64054f2	-0.2486214219831378
127	0xbfb877012aaa0027	-0.09556586543658395
128	0x3fab3554c578d494	0.05314125929400251
129	0xbfc80137c73b32c7	-0.18753716686332764
130	0xbfbebfc1f3daf2a0	-0.12011348918435738
131	0xbfc3b15398637993	-0.15384907666061717
132	0x3fb7d6e0199dcfdf	0.09312248826409995
133	0xbfd4e1ccd4b233f4	-0.32628174563507106
134	0xbfd0bfd7feeb1f66	-0.261709212249562
135	0x3fc097e79ff6c3a4	0.12963576613176742
136	0x3fae4bb6668d1bd4	0.059171390551049946
137	0x3fd01133c397d4a6	0.25104993916404295
138	0x3fcdfb4dd7444bbb	0.23423169146607656
139	0xbfe5e8b14894d93f	-0.6846548478704689
140	0x3fcd9ea4c8a40a16	0.23140392109787972
141	0x3fb20af7470e0779	0.0704798267816197
142	0x3fa1ab9d7d11b6db	0.03451244498942937
143	0xbfb8d0aabd418421	-0.09693400497919004
144	0x3fad53d17149d222	0.05728010661997397
145	0x3fc060a4111ba85f	0.12794924579003727
146	0xbfb65753482a6273	-0.08726997863630874
147	0x3fd52e6caec3517c	0.3309585291547348
148	0x3fd6369e6c7e2146	0.3470836696146943
149	0xbfdeaa9be343eb77	-0.4791631430995759
150	0x3fbdfe70dd2793cb	0.11716370963365745
151	0xbfc26d3325dad2b3	-0.14395751331689652
152	0x3fc858da9d812513	0.19021160784385724
153	0xbfc15744a7dcd280	-0.1354757136956728
154	0x3fd2d644a9c37a36	0.2943278940055366
155	0xbfc8237f67638524	-0.18858330295828651
156	0x3f98797c4f1496eb	0.02390093071621539
157	0xbfb1084844da7d88	-0.06653262787812342
158	0xbfa0d07b9e423b19	-0.03284059817189284
159	0xbfda6bc32449265c	-0.41282728713540506
160	0x3fc96f91127c7a72	0.19871724512718775
161	0x3fc7fcc23460468a	0.18740108067918398
162	0xbf9e0ad9586f0f26	-0.029338260672161408
163	0xbfd366aa1a2b9f6b	-0.30314114146903276
164	0x3fd804bcaee7c9ad	0.37528912621123817
165	0xbfce2e956af63930	-0.23579662058586726
166	0x3fbf6cd3260fe8dd	0.12275428466083178
167	0xbfbb089cf3845f39	-0.10560017533532297
168	0xbfc38cc66150d530	-0.15273360969300986
169	0xbfe479ebaa04d3b3	-0.6398828812294738
170	0x3fccc607ef77e2fc	0.22479342644489708
171	0xbfc8f48ec7f371a4	-0.19496330989103428
172	0x3fa398321d228af5	0.038270536476621965
173	0x3fc1eb0b409b4c03	0.1399854722463659
174	0x3fc21387ec48a2f8	0.14122103726665336
175	0xbfc8ef6f898910b7	-0.1948069974479318
176	0xbfaa0c76351ebf00	-0.05087632559241051
177	0x3fb3eb80fd120276	0.07781225374675124
178	0xbf35dadaa2c5707b	-0.00033347928799343896
179	0xbfd991effd0ba0c1	-0.39953231536356887
180	0xbfd48b04e33ae555	-0.3209850520175526
181	0xbfd080ea0d29c772	-0.25786830220669466
182	0xbf6ec95cf55afa2d	-0.003758126792347902
183	0x3fc24b0f5d768440	0.14291565002079842
184	0xbfc840fa2a7c2857	-0.18948294710600308
185	0xbfcf2fdad7769619	-0.2436479141298811
186	0x3fcc20e5c3100228	0.2197539522603773
187	0x3fc19998c108007c	0.13749989915232053
188	0xbfd508577be81ef2	-0.32863413906350936
189	0x3fc9271ec58187b1	0.1965063537964489
190	0xbfd48499750cb7a9	-0.3205932276786095
191	0xbfb6024217542dc1	-0.08597195691634509
192	0xbfcd78049b69e779	-0.23022515858229634
193	0x3fc956a86200e684	0.1979570845158386
194	0xbfc43247445eefc1	-0.1577843746034642
195	0x3fcd88a30655924e	0.23073232468881816
196	0x3fcd9918927083cc	0.23123461866728545
197	0xbf9e7508c44f041a	-0.029743325216035378
198	0x3f95adadaa6bc175	0.021170342947642824
199	0xbfe1b13e2f59fe44	-0.5528860974154175
200	0xbfd686a9557f9a83	-0.35196908330400606
201	0x3fcfb894d34ed96b	0.24782047574781116
202	0xbfb6206f6c96f467	-0.08643242264857208
203	0xbfba515a1beb9997	-0.10280383283279658
204	0xbfd72faf880b025e	-0.36228550229501433
205	0x3fc38a5c47388299	0.15265992620063143
206	0xbfb4acc9a649a489	-0.08076153096921436
207	0x3fcb935a136c4532	0.21543432186494155
208	0xbfc97c81a1155477	-0.19911213269611824
209	0x3fc41ca39f16b36a	0.15712399738313404
210	0x3fd919cb0ed2817a	0.3921992916821392
211	0xbfbf82915bf95794	-0.12308605666598132
212	0xbfd0b8e19825ae18	-0.26128425462840843
213	0xbfa0d2291020b34f	-0.032853396624295976
214	0x3fd1dbc4427d52a5	0.27903849118346563
215	0x3f994d461b2c9d48	0.024708838852487675
216	0x3f947aa7709b57bd	0.019999138114904492
217	0xbfd007347cb896e8	-0.25043976001539514
218	0xbfa1928724469cd2	-0.03432104413814731
219	0x3fcdbd435dd95a96	0.23233835298988897
220	0x3fb82b14dc238e42	0.09440737127766233
221	0xbf90682b895fb5ef	-0.01602237726176797
222	0xbfc3d5c26aa9db10	-0.15496092041186005
223	0x3fc2d1775b7d92f1	0.14701740233717644
224	0xbfb15c3c48531576	-0.06781365171180717
225	0x3fc87fc845c2ebde	0.19139960676497386
226	0x3fc304f62851c260	0.14858891457290024
227	0x3fc2eeddef20a282	0.14791464019915074
228	0x3fd4133ace460833	0.3136736883535633
229	0xbfdeaccb746a5bcd	-0.4792965542669066
230	0x3fae86a17254780d	0.05962090035085064
231	0xbfb928101a6d2b1c	-0.09826756138970122
232	0x3fa96e1ef0f77b80	0.049668280520328345
233	0xbf9a438e946e5274	-0.025648334321504554
234	0x3fb3134530d099ef	0.07451279107826968
235	0xbfc10983390207ed	-0.13310280116644382
236	0x3fb617984ddd8d8e	0.08629753018390415
237	0xbfc790ac83dbb7e8	-0.18410259664909678
238	0xbfccd77e9016dfdc	-0.22532636676419215
239	0xbfdba0fb72462b0c	-0.43170057448939825
240	0x3fc7eaaa99274b7b	0.1868489501781275
241	0x3fadf42f0dff84a8	0.058503599604372625
242	0xbfc2e0d993f797ab	-0.1474868748184098
243	0x3fd12391707c2ec6	0.26779590592262215
244	0xbfb277debe6feeec	-0.07214157246920266
245	0xbfadddaaa74c9798	-0.05833180706240099
246	0x3fb76ac7ed0b8446	0.09147309815627222
247	0x3fd97c94d98eb6f6	0.39822884794089874
248	0xbfd0f9a4ead7c680	-0.2652370732676914
249	0xbfcc2b7ae40da874	-0.2200769055883175
250	0x3fd7b83de7e0b3b6	0.37062022823630103
251	0xbfb0507dc597e543	-0.06372819971138192
252	0xbfb6296262ba6dca	-0.08656897459370963
253	0x3fd0ea2af41364d4	0.2642924674560849
254	0x3fdc6077268ea8ac	0.4433877827201609
255	0xbfb22a0fd1258e7c	-0.07095431190605866

net.0.bias f8 [64]
0	0x3fcbc63ff7af19f9	0.21698760599083736
1	0xbfd25a12ac0646dc	-0.2867476158072415
2	0x3fa4d1ad1cbac87a	0.04066220260337246
3	0xbfc05c10f75edc31	-0.12780963972702034
4	0xbfba720258601883	-0.10330214173890977
5	0x3f9d63b2f40f55fa	0.02870063414214561
6	0xbfad52e650ed78c2	-0.05727309930692705
7	0xbfafae7647aca0c7	-0.06187791466646924
8	0xbfd9aafa5c6c785a	-0.40106066728356426
9	0x3fa70a7c3ab6175e	0.045001871268182767
10	0x3fd107bf2f740dc8	0.2660978282367208
11	0xbfb1457ae486d722	-0.06746643141999845
12	0x3fc6f03ef3bcc59e	0.17920672322501913
13	0x3f917acca3f532ac	0.01707000494689008
14	0xbf991808a4054717	-0.02450574399092095
15	0x3fd6b8177e7b54ba	0.35498607017263917
16	0xbfb095ce30f868a1	-0.06478584952893353
17	0x3fd11b9a7f72644c	0.2673097843740535
18	0x3fc6afe44f20566f	0.17724279273595608
19	0xbfb3f86a7c64b245	-0.07800927674242882
20	0xbf7f81a9da20f370	-0.0076920161100674095
21	0xbfc6b7298df00c71	-0.17746467047263395
22	0x3fdacace7ec4ebb4	0.4186283338528327
23	0x3fd8f9af96ea82c8	0.3902396177091245
24	0xbfc83add1c1326e9	-0.18929637785759404
25	0xbfc8df3e0e26f6ab	-0.19431281748795945
26	0x3f99ced43cd653ea	0.025203052724083998
27	0x3fc0c30a46d35c39	0.13095215280802266
28	0xbfca815bdb3d919d	-0.20707271771528904
29	0xbfd0b0aec35b09fe	-0.2607838542718638
30	0xbfcd444df6233300	-0.2286469890444991
31	0x3fd89c48f9fdbca3	0.3845388833351057
32	0xbf95f08197202167	-0.02142527089020643
33	0x3fc29755e8fd54f0	0.1452433955807133
34	0xbfb253a3079a4117	-0.07158869681939382
35	0xbf9b5587f9a8ea66	-0.026693462956453827
36	0xbfd9cf6d0f2f5290	-0.403285279110869
37	0x3fafb221c637bc87	0.06190591377878101
38	0xbfaafe1533b70f46	-0.05271974808013495
39	0xbfb710a9ef907dc1	-0.09009801958790488
40	0xbfc466a47c6229ec	-0.1593824012127948
41	0xbfb71462ae1baab5	-0.09015480757413281
42	0x3fd5b3fa9e9d8945	0.33911004533560557
43	0x3f5e60433ef1ab25	0.0018540054986952517
44	0xbfd28aa787a858cb	-0.2897127938061998
45	0xbfabd738864da82d	-0.05437637938923987
46	0xbfd00189ee4f159a	-0.250093920444067
47	0xbfac329dac16e57a	-0.055073668725024796
48	0x3fd938f596f66911	0.39410152189670195
49	0x3f9365e7024cd6f1	0.01894341422595053
50	0x3fcb401f4215b876	0.2128943512611305
51	0xbfb09f258b9fc7eb	-0.06492838534157357
52	0x3f92f2d74a27bd15	0.018504489804340347
53	0xbfd747fcbbe0a78e	-0.3637687525502934
54	0x3fb292b9ec8d6429	0.07255136513903494
55	0xbfb262f367e01de3	-0.07182236944219471
56	0xbfc84b14f08ee55b	-0.18979131456380113
57	0xbfb7d18688613423	-0.09304085568983615
58	0xbfce56558ca892d5	-0.23700971000757556
59	0x3fd6b036d7a82b69	0.35450526294942236
60	0xbfa7880b9486a470	-0.04595981777249214
61	0x3fc7ebb0f4dc110f	0.18688022571598892
62	0x3fd1d51287f7e1e7	0.27862990644601243
63	0x3fb6b7736a5e63e2	0.08873673769848225

net.2.weight f8 [64, 64]
0	0xbfa8909557de1490	-0.047978083587659204
1	0xbfc9e350aa94a135	-0.20224960641031378
2	0xbfc53f584d5e1e55	-0.16599563386647512
3	0x3faf239e68a777b0	0.06081862475887989
4	0xbfae72e019f98273	-0.059470179720624204
5	0xbfb7ad0d06ade952	-0.09248429692334995
6	0xbfc20107d4fb034a	-0.14065645121993448
7	0x3fb83bddbd3a5365	0.09466348523922148
8	0xbfcfa62cecb1030e	-0.24725877339553687
9	0xbfc89802f4be24aa	-0.1921390242608017
10	0x3fc93ecb6e0336e2	0.19722884055811735
11	0x3fae4450a1110dab	0.059114951764537814
12	0x3fbf1c1f7a045ff3	0.12152287224705542
13	0x3fc49c48f0ffec38	0.16101943748057734
14	0xbfabead19e7c1f19	-0.05452590045575629
15	0x3fc5fcf7a3959cad	0.17178245055695154
16	0xbfa789e4a1cc9568	-0.04597391581618632
17	0x3fc565040f16d5be	0.167145259254239
18	0xbfbac296524aad67	-0.10453166493487275
19	0x3fc714143eb1d6b0	0.1803002649427774
20	0xbf7bcfe9bc0ac777	-0.006790078187508423
21	0xbfb2f85f2984e758	-0.07410235179568525
22	0x3fc929736243e5eb	0.19657747552973545
23	0xbfaffe84332a3e09	-0.062488681073883674
24	0x3fb6f42c4a9bad79	0.08966328450667573
25	0xbfca7a5e9f694aa1	-0.2068594244361366
26	0xbf9df364bd4b2331	-0.029248785069998454
27	0x3fa7fb7d662de3a1	0.04684059021287302
28	0xbfc6d2ef42ebd38a	-0.17831221358906318
29	0xbfa1a043d6b27e3e	-0.034425849874648126
30	0xbfb979ac1bde713f	-0.0995128219642014
31	0x3fce5112d63b7a6c	0.23684916935504263
32	0xbfa65a19530dacbd	-0.043656150234562464
33	0xbfc0bf96ecacfb00	-0.13084684902602106
34	0xbfb58fadbd017053	-0.08422361244578384
35	0xbf8745daad36dc05	-0.011363705073433658
36	0xbf95eb7a59c78376	-0.021406089524933468
37	0x3f84719940d109ba	0.00998229722074916
38	0xbfbbb0d5b6d7c3f7	-0.10816703523575187
39	0x3fa46cd69446b4f5	0.039892869567987356
40	0xbf9ccb2bb5bbd017	-0.028118784873143534
41	0xbf6c10a431e5e9e6	-0.0034259039813921864
42	0x3fcae48185d25107	0.21009844812636677
43	0x3f94e63a1933a33f	0.020409496105375565
44	0x3f8dcdb3725d723a	0.014552499702113687
45	0x3fa53ffe1fbcfbbe	0.04150385034016989
46	0xbfa7459199a75315	-0.045452642447037096
47	0xbfb135dd386f32bf	-0.0672281515864581
48	0xbf83466ca9cd9b63	-0.009411667758923497
49	0xbfc402fd4e11496d	-0.1563412314595313
50	0x3fbb3c05b1a9297b	0.10638461673184978
51	0xbf94e613ba2f752b	-0.020408924330571992
52	0x3fbcd86e71e30b62	0.11267748146478376
53	0xbfb236655d836fac	-0.07114251645128772
54	0x3fb579651e8c0c14	0.08388359065797629
55	0x3fac51fd94b9d58d	0.05531303825857057
56	0x3f9c1dc1da6f7f9e	0.02745726485943544
57	0x3fa3c2d448023ded	0.03859580401433136
58	0xbfc127c856400133	-0.1340265675680797
59	0xbfa2690938fbb1dc	-0.03595761128039829
60	0x3fa3ffc4eefbf2c5	0.039060739682076163
61	0x3fad60817e4a1d95	0.057376906076622415
62	0x3fccf674461a16d4	0.22627118514008393
63	0x3fb5ad9eb344c629	0.08468047978092187
64	0xbfa7f8d89d17fe1e	-0.04682042043350186
65	0x3fb59d84ef4dda96	0.08443480341325435
66	0xbf57ecdd870634d1	-0.0014602816919222948
67	0x3fbb277fd151eab2	0.10607146129943137
68	0x3fc13625ffd6a347	0.13446497909651553
69	0xbf90d55324617e4d	-0.01643876943160043
70	0xbf90f116ea300d52	-0.01654468349808031
71	0xbfc815ea2b33f446	-0.18816878423231936
72	0x3fc61be438079cc4	0.17272618041827148
73	0x3fb25525991da00a	0.07161173809220159
74	0x3fbf067e267cf425	0.12119282188082588
75	0xbfc212af07895f2c	-0.14119518154142818
76	0xbfb6c5dd57ca9885	-0.08895667451233365
77	0x3fb64a660bc8b305	0.08707273280806412
78	0xbfab17b8f973bf15	-0.052915363741588596
79	0x3fc034b44d9c65da	0.1266084078750243
80	0x3f790177e613ddcc	0.0061049159569316995
81	0x3ee35c32d88a1c75	9.231639311891988e-06
82	0x3fb6189419a44b76	0.08631253839511807
83	0xbfb667c02f7793cf	-0.08752061041702962
84	0x3f84adb53939a6f0	0.010096946534037227
85	0x3fb95b5b991ea4cd	0.09905025947832087
86	0x3fb5ba9aaf420809	0.08487860468633825
87	0xbf7159449c328bb0	-0.004235523231872415
88	0x3fadfe7f5796a062	0.058582286302510736
89	0x3fbc382a1c602e8e	0.11023200218931548
90	0x3fc21758e66eb0b7	0.14133750201779602
91	0xbfd2b18293494a13	-0.2920843542425768
92	0x3fbbdb1d3d5671bd	0.10881216762067587
93	0x3fcd3cd110cc0ad8	0.2284184772507476
94	0xbfd0cce82e6d5f8b	-0.26250652822408743
95	0x3fbc78676b27d7bd	0.11121221891502749
96	0x3fd45048061856e6	0.31739998431417715
97	0x3fbbba6356e89d25	0.10831280586045418
98	0xbf8249f986b0a66f	-0.008930158064760023
99	0x3fc431723c297203	0.1577589792021997
100	0xbfbbb7c7d166bef7	-0.10827301847779923
101	0xbfa4795829014f19	-0.039988284116274815
102	0x3f8b4dcd6758e53f	0.013331989971549716
103	0x3fab28c903e04aef	0.05304554149929241
104	0xbfb037d522fb6f95	-0.06335193733269613
105	0xbfb153a0f0de0e84	-0.06768232231666543
106	0x3fcd5099e57b9d32	0.2290222521325887
107	0x3fb7f8d83ce6977a	0.09364081847033204
108	0x3f8fd2d4c5cda347	0.015538847242810084
109	0xbf993a78733a0139	-0.024637109787819276
110	0x3fc50656dd02e4cf	0.16425596038405962
111	0xbf936799a1ea43a1	-0.018949890620720947
112	0x3fc8f525b8476da1	0.19498130319594245
113	0xbfc1972f31409eed	-0.13742628006843152
114	0xbfbd651267cc3a7f	-0.11482348474621949
115	0x3fc882ca146146f5	0.19149137492291116
116	0xbfc69b88093143e0	-0.17662144135331825
117	0x3fbb9184c1c2c733	0.10768918734063675
118	0xbfc36933a605025d	-0.15164800268577752
119	0xbfba013754183c40	-0.10158105662434114
120	0x3fb5f52f1151a82e	0.08577245877100445
121	0x3fc87359f49e4688	0.1910202450204006
122	0xbfc1bc7420d49704	-0.13856364825294787
123	0x3fc5a36d3be4d2f6	0.16904988693718054
124	0xbf8c95550ccbfa0f	-0.013956703618075243
125	0x3f38024a4b5fc7ab	0.00036634744480956255
126	0x3fccc5b4b9ccca61	0.22478350708259412
127	0xbfaa9723c0a07cb5	-0.05193435408022521
128	0xbf662873461daa58	-0.002704835075680461
129	0x3fa8bf51f6c2f921	0.04833465707041485
130	0xbf92b8419716ed88	-0.01828100666692259
131	0xbfc4d52115775aa6	-0.16275418804317104
132	0xbfc364e4d822ae4d	-0.15151653817643976
133	0xbf83444a91622fec	-0.00940759903121343
134	0x3fc37bcdd488d9a0	0.1522156989828547
135	0x3fb2ef4f7b95a78a	0.07396408812715385
136	0x3fbf2f87561d5dd0	0.12181897976312617
137	0xbfbfb25fc452a294	-0.12381552260434098
138	0xbfa806e408c38eb9	-0.04692757231694373
139	0x3fb74456ae0baf72	0.09088651417886043
140	0xbfaa6c96a6899dc5	-0.05160971434525722
141	0xbfc2a816b1263203	-0.14575465822089492
142	0xbfa56df0a9b2a9c3	-0.04185440131671527
143	0xbf7cca9b43299949	-0.007029158109253261
144	0x3f96f8139dc11294	0.022430712226440067
145	0xbfb90d126f740a53	-0.09785571309115797
146	0x3fad02a54b247083	0.05666080991997637
147	0xbfc48e7635f70c9d	-0.16059758791934522
148	0xbfc0b4186af20cea	-0.13049607488583287
149	0x3fb8434cbafc1daa	0.0947769123559882
150	0xbfb9e5e457d96d61	-0.10116412300833623
151	0xbfae954ca2616028	-0.05973281366522115
152	0xbfa2433a28ba156e	-0.03566915270952618
153	0x3fa6d10538f2c192	0.04456344909829392
154	0xbf93a277fa03907b	-0.01917445624793899
155	0xbf826fb8f4131762	-0.009002156208577087
156	0xbf71f9bf45665d67	-0.0043885680701330814
157	0x3fc8f27069f23f67	0.1948986546817608
158	0xbfa4ea616da017e0	-0.04085068190765617
159	0xbfb68db616840f52	-0.08809984254554351
160	0x3fa4efa57b016cd5	0.040890856995895376
161	0xbfa03279f59ede03	-0.03163510440156971
162	0xbfcc874739379f60	-0.22287836355030333
163	0xbfad27c23fea8a6b	-0.056943960478084
164	0x3fb7a0a9e81e39ad	0.09229528347916612
165	0xbfc4b187334cc41e	-0.1616677284705767
166	0x3fb79b6b51b1bc7a	0.09221525902261077
167	0xbfbd2b006842edcb	-0.1139374022049459
168	0x3fd054206936dff3	0.25513468050803495
169	0xbfc3f127cfcaf394	-0.15579698225147054
170	0xbfb5cff438fd8adf	-0.08520437613837427
171	0xbfc18acb1ab9bdc9	-0.13704813771208382
172	0xbfa5f960e073d7bb	-0.04291823139094172
173	0xbfa4de4844f6df61	-0.04075837938165595
174	0x3fc0a131a7102b22	0.12991924912815828
175	0xbfa843631fbd3473	-0.047389123558425526
176	0x3f8e2beb8d2d7a06	0.014732208486461406
177	0x3fc49de98b4a3091	0.16106910039195957
178	0xbfa34037c1be458b	-0.037599317932413966
179	0xbf61eaec9b633afa	-0.002187215922368477
180	0xbf82059c0ccee24b	-0.008799761906503131
181	0xbf989996518b5408	-0.024023388602319812
182	0x3fab2837bc2e6c31	0.05304121181617239
183	0x3fa60f1ba7b81b08	0.04308401510575349
184	0xbfbf3755a126b8ed	-0.12193808731419482
185	0x3fb9b9484e0fc9f0	0.10048343568613638
186	0x3f6a620838bf9aeb	0.0032205734805644723
187	0x3fa459a0b5cc96ab	0.03974630564907263
188	0x3f741862c895f7d8	0.004906068680950747
189	0xbfb5139a0a89a92c	-0.08233034856099114
190	0xbfafcadb140c6038	-0.06209454173784973
191	0xbfaf30bc7a8a7e58	-0.060918703039757716
192	0x3fc214e57482563b	0.14126270474359778
193	0xbfb5f1c1dd16f3c0	-0.08572017333695126
194	0x3fb00da66833d4ea	0.06270828289037281
195	0xbfbed5499aa74655	-0.12044200921743571
196	0xbfc4982774625c53	-0.16089337523291877
197	0x3fa8a9f0b59f8db5	0.0481715413768841
198	0x3fb620c0bd371c1c	0.0864372693969106
199	0x3fc68f1e2bb859fd	0.17624261030933033
200	0x3fc299a1e1a126bc	0.14531348721566484
201	0x3fc2a2c2a770b26a	0.14559205222885235
202	0x3fb51e1a558b1eec	0.08249058330977349
203	0xbf9cea52eefe614f	-0.028237624966636784
204	0xbf7567112fcad9ad	-0.005225245604995638
205	0xbf8b5da3b6475459	-0.013362196922495228
206	0x3faae9f75e8243d6	0.05256627110168892
207	0xbf910839141d0535	-0.01663293061506473
208	0xbfb243c6e0ec5574	-0.07134669295586155
209	0xbf82d19f074f297f	-0.009188883219299225
210	0x3fb5836466a22f28	0.08403613572789637
211	0xbfa239a69f0bed26	-0.03559609118925726
212	0x3fb3bfd786060f66	0.07714602491438213
213	0xbfbc4d869eff967c	-0.11055795079990988
214	0x3fa79c70b587d60a	0.046115419539926775
215	0xbfb5aa4dc345e12b	-0.08462987916380331
216	0x3fc1d9ecf8c4fd49	0.13946306368777986
217	0x3fa02052e76406ff	0.031496611352862296
218	0xbfc59d22a77e074b	-0.1688578908761492
219	0x3fad797b67e1a36d	0.05756745951732154
220	0xbfa5356d13c3c225	-0.04142323366420823
221	0x3f9c7160e3a78843	0.02777625455372169
222	0x3fb4a60592c41b45	0.08065829117923069
223	0x3fae8b6427b689f7	0.05965722069528916
224	0x3fa4eae2e0e7e66c	0.04085453982766016
225	0x3faf1975437c836a	0.06074110459144928
226	0xbf8a27d8d6c45e71	-0.012771314672632901
227	0xbf946409d447ba33	-0.019912866193346267
228	0x3fc867bfddca8cc3	0.19066618280075973
229	0xbfc047ebec35297b	-0.1271948722226844
230	0x3fb1429968131b02	0.06742247382053893
231	0xbf9475b570a7ff09	-0.019980273247710154
232	0x3fc9ce1f0f1f3381	0.2016028236234
233	0xbf942501ea785b37	-0.01967242234794783
234	0xbfbdc5a61f0d56cd	-0.11629713304622698
235	0xbfb751f0574c5149	-0.09109403735448497
236	0xbfa31fffd354725a	-0.037353510424712424
237	0x3fb1f2c48b5f0d2c	0.07011059191340924
238	0x3fc4ffc5208d3037	0.1640554818098978
239	0x3f97f25846a83747	0.023385409653250446
240	0xbfbae88fb04752f2	-0.10511110356976497
241	0x3fc8c54894fe07c9	0.1935206153394218
242	0x3fab106d7f02d9cd	0.05285970855168252
243	0xbfb72ddf53e6fab9	-0.09054370687861536
244	0xbfa897cff3b038bf	-0.04803323602401254
245	0xbf98b917fc1ddd48	-0.024143576395969008
246	0x3fc113fcc04b415d	0.1334224642691976
247	0x3f8e67645273167a	0.014845641866837445
248	0x3fb6104c3874f803	0.08618618372290147
249	0x3f3836109a20492e	0.00036943345378505604
250	0x3fcd7fd1da689dea	0.2304632488678487
251	0xbf9507643fc58a3e	-0.020536009208976795
252	0x3faf7e4c0784a80a	0.061510444562671365
253	0xbfafe23c449a2bc1	-0.06227291428975646
254	0xbfc8ab6ae993a062	-0.19273125081167836
255	0x3f9d31b51016a991	0.028509930712667112

net.2.bias f8 [64]
0	0x3fb3d0d33d037a28	0.07740516891087934
1	0xbfb75091e2fa1472	-0.09107314864566421
2	0xbfb3ca4e6ae3b337	-0.0773056994400577
3	0x3fabd6d6483a6ffb	0.0543734515351559
4	0x3f9f6571c8b73671	0.03066041743823295
5	0xbfa9449b46db8e12	-0.04935155143700966
6	0x3fa3f14b15aeec3a	0.03895029678047775
7	0x3fb27074d5f74a6c	0.07202844833163063
8	0xbfa08eadf7e85d7e	-0.03233855868546252
9	0xbf9263a06b0323bc	-0.017958170444021468
10	0x3fa8509227589b63	0.047489707282059944
11	0xbfc087aa10857dc2	-0.12914014631949838
12	0x3f9222e2b1d7c559	0.01771120272127766
13	0xbfba643d99eb8b81	-0.10309205062689665
14	0xbfb2cd444430b54b	-0.07344462075044082
15	0x3fb6c76884db256e	0.08898022883945142
16	0x3fb4aed58dff3dec	0.08079275814747405
17	0x3fc395cb08991790	0.1530088226301669
18	0xbf6eae7385c831ab	-0.003745294218111724
19	0x3fb62acfaaa711bd	0.08659074703525156
20	0xbfb58acb95d9360f	-0.08414909752283271
21	0x3fac3240e899b45a	0.05507090415344669
22	0xbf98f30aa3ab7514	-0.024364629973992427
23	0xbf8f7b4c7d2c0d44	-0.015371892518948223
24	0xbf9615b68da5f993	-0.021567203898933917
25	0x3fc2f8575f8bbf36	0.14820377507521137
26	0xbf9d06bf972a1173	-0.028346055604303765
27	0xbfc67a25be177588	-0.17560264379327983
28	0xbfbc43f34df610c6	-0.11041184094762277
29	0x3fa106db34314eaa	0.033255434151809496
30	0x3f70f0efd802370c	0.004136025323658431
31	0x3fc4c911cb6cde04	0.16238615448831706
32	0x3fb18d8f7c660e73	0.06856629168583499
33	0xbfca54d82e5b49cb	-0.20571424735551455
34	0x3f95058bb541394f	0.020528967798150884
35	0x3f5f675ff1e2749f	0.0019167363130130689
36	0xbfc1ab0f6c585452	-0.1380328444508075
37	0x3fb8e71a026241b6	0.09727633054922688
38	0xbf92563ed4af0bd4	-0.01790712521666278
39	0xbfb7c25419295d57	-0.09280896772667312
40	0x3fc25da1efa09274	0.14348243904636926
41	0xbfb22d1b0e3bcd7f	-0.0710007581472407
42	0x3fa7b9c3b854d157	0.046339145900136706
43	0xbfb02c7f057fee38	-0.06317895778914184
44	0x3fb09ec5a1b15806	0.06492266843392266
45	0xbfa27501f8564b80	-0.03604894787272084
46	0xbfc0e7af53f1baa7	-0.13207046126213592
47	0x3f98505101020b2a	0.023743882833979026
48	0x3fbd1a76dbb737e7	0.11368506302025559
49	0xbf5b4aef6663555c	-0.0016658151521843
50	0xbf9f914b6cca0d78	-0.030827692522973987
51	0x3fade1ea2309d5b3	0.05836421659197857
52	0x3f973a787bb2ba43	0.022683985280929752
53	0x3fbd71fd64297fd6	0.11502059645999849
54	0xbfa18e63c09326b4	-0.034289471872012284
55	0xbfbd38e25e1abee8	-0.11414923474762484
56	0x3fa12fc74c8eb69d	0.03356764611758687
57	0x3fb42c48a8574bcf	0.07880071744811733
58	0x3fc3292bd9185cae	0.1496939477953893
59	0x3faca79153e38f48	0.055965939989418845
60	0x3fa528c25a040a24	0.04132659291100918
61	0x3fa09990809761f0	0.032421603867707094
62	0x3f982099b5886b2d	0.023561860756767295
63	0x3fa8cf3115c03a90	0.048455747513903025

net.4.weight f8 [64, 64]
0	0x3fcb987b837fd8e3	0.2155908958517961
1	0xbfbac828cd2bec00	-0.10461668976851968
2	0xbfbb60e1404b95eb	-0.10694701976498037
3	0x3fae7bd9c1773acb	0.059538655153678365
4	0x3f44c3148f8c35d8	0.0006336069482998875
5	0x3facc5285b90848c	0.05619169347506511
6	0xbfc92504d1329276	-0.1964422246429824
7	0x3fc269cb70d25f29	0.14385359772563192
8	0x3f9e068e30e3717e	0.029321881994165626
9	0xbfa6dc96ed6f5040	-0.044651714786283936
10	0xbfb37a6ce31af319	-0.07608681244432737
11	0x3fa0f5cc98c7e375	0.033125299119951025
12	0xbfb7b8584c24faeb	-0.0926566301250024
13	0xbfb71321cbf4d09c	-0.09013568143274359
14	0x3f8fa3660cb9cc67	0.015448376906738127
15	0xbfba698902f7f94e	-0.10317283937908892
16	0xbfb12c25e1504c89	-0.067079894550533
17	0x3fa06b321db29e2f	0.03206783878823349
18	0x3fc35e95ad5066e8	0.15132399523354612
19	0xbfa7c8dcf18ff28d	-0.04645433853872758
20	0x3fb38180c05223ee	0.07619480796178354
21	0xbfba4e331ad5b9fa	-0.10275573163173837
22	0xbfa42e2a2745e601	-0.03941470841796147
23	0xbfb6351f42f9dfc3	-0.08674807915838216
24	0xbfc39aca5c79a2a5	-0.15316133036983107
25	0x3fb429b610c7352d	0.07876146230338028
26	0xbfae66d21540b829	-0.05937820920404164
27	0x3fa617e4ced975e3	0.043151045084169025
28	0x3fd26c07b0a8d63e	0.28784363033205185
29	0x3f95feb53d217b61	0.021479446273925066
30	0xbfb76f2a1a5b7052	-0.09153998511777786
31	0xbfb416eb238f283c	-0.07847470873017043
32	0x3fbc14ee87f9d5da	0.10969439334606737
33	0x3faefc58a1d8ff62	0.06051899886779101
34	0x3f99c8ce6d6d60c0	0.025180077961835634
35	0x3fa7fc66a16f68f3	0.04684754105228874
36	0xbfc809cd7245646e	-0.18779914931909353
37	0x3f8429e5005d4dab	0.009845532487509375
38	0xbfaaf0e9a4776085	-0.0526192677750155
39	0x3fcf8cde689be14b	0.2464864741120983
40	0xbfc48f684d98a9fa	-0.16062644757160155
41	0xbfa65a9ea04e8103	-0.04366012293690071
42	0xbfc10b615831fe22	-0.1331597977295909
43	0x3f8d0f5faf882970	0.014189479393299037
44	0x3fc7ca39a6338a4f	0.1858589231042793
45	0xbfc8b66cb5a3da39	-0.19306715840476033
46	0x3f8593bcb9a8386c	0.010535692611508739
47	0x3fa939b71ef3e22f	0.04926845791664324
48	0x3f7e7e1d05d878b8	0.0074444898323504025
49	0x3faed5789e0d2b25	0.06022240571345198
50	0x3fbeeefdbd525753	0.12083421585188363
51	0xbfaf6fe3a3cab1d0	-0.06140052198802304
52	0xbfaa5b434748c884	-0.05147752995652957
53	0xbfcc6bef0c7a971d	-0.22204387769050352
54	0x3fc203bfa6a653fa	0.14073939931100182
55	0x3fc41e1837d957be	0.15716841437341417
56	0x3fc10286c09d6258	0.13288959889429708
57	0xbf6c98cdc0f99939	-0.003490831244380346
58	0xbfaef3008f7e0c5a	-0.06044770957580488
59	0xbfb66931975240f3	-0.087542628711393
60	0xbfc09e98202f42f3	-0.12983991214289112
61	0x3f98acabc7a587e2	0.024096187649213514
62	0x3f96e60499410497	0.02236182389629401
63	0xbfb389bc187daee0	-0.07632041547702384
64	0xbf99af1f2f163f51	-0.025082099198299904
65	0x3f890cded0a5a993	0.012231579534916636
66	0x3f88d63fa18dc4e5	0.012127396695833468
67	0x3f9603f1831d5bb4	0.021499417903523457
68	0xbfaf3705ef32be6c	-0.06096666855716823
69	0x3f5b0fc9cf791e9f	0.0016517134480568474
70	0xbfce527fa3cfc8a5	-0.23689265726676925
71	0x3fbb9ebdf9c27fa1	0.10789096210146322
72	0x3fc1b1f258808868	0.13824300118818944
73	0x3f9e425bd4a3f561	0.029550013402503853
74	0x3fb734c0f20b675d	0.0906487074784343
75	0xbfb99322f1cec0be	-0.09990137485033565
76	0x3f6f44afc53e2177	0.0038169320122884392
77	0xbfceb37e8327b192	-0.23985272792868934
78	0x3f8c47eb6565cdc2	0.013809050590430586
79	0xbfbf9674c3e25200	-0.12338952810598158
80	0xbf9a8520a09faf5d	-0.025898465923020243
81	0xbfbdd8d0f23a01c2	-0.11658960260138598
82	0x3fa8b3b7188f2f20	0.048246118305171004
83	0x3fc98a5a4000dbc9	0.19953468442119363
84	0x3f9684c5e20a57b6	0.021990863725100694
85	0x3fb4a1bb07f6abbf	0.08059281296179586
86	0xbfae9d032530ec5d	-0.05979165867798806
87	0xbfc2266119803fd4	-0.14179624314465278
88	0x3fcab9413e6de3b5	0.20877852962783341
89	0xbfc05d88ac5ae24d	-0.12785442748806233
90	0x3fb083b94d18188b	0.06450994617634558
91	0x3fbc4927422a2c6a	0.11049123158788779
92	0x3fa889272f963423	0.04792139488117921
93	0xbfd0258b43837df0	-0.2522915038407225
94	0xbfa50a9d0b3f8dab	-0.041096599219396644
95	0xbf969645ce23530a	-0.022057619768776106
96	0xbfb0e0b7fc0ab8bb	-0.06592893508306734
97	0x3fb0bd50a36f0f8e	0.06538871755679862
98	0xbf993b7b2f915826	-0.024640965250306256
99	0x3fa072743ef8ec03	0.03212321537690601
100	0xbfaa8bb0f5e7c9dd	-0.05184700967574305
101	0xbf98662cc9d7dc83	-0.023827266521007317
102	0xbfba4c43a764a5af	-0.10272620045420554
103	0x3fc7ac17a12e75e5	0.18493934030713813
104	0xbfc05e5f8ba9044c	-0.127880042260616
105	0xbf900317160c0b1b	-0.01563678810181122
106	0xbfbb44d2dfc64797	-0.10651891673322066
107	0xbfb2daff5685496d	-0.07365413534470173
108	0x3fc774d8736171c9	0.18325334199734147
109	0xbf90763a0c39eb90	-0.016075999256354445
110	0x3fb7ed1dcaec0fc9	0.09346185878899783
111	0xbfccbcaec04ec089	-0.22450813665409822
112	0xbfa7598e4b970ef0	-0.045605131842902824
113	0x3fa65830f4e44ee1	0.04364159573938565
114	0x3fad568bef733347	0.05730092332814834
115	0x3fb770090f66b5d2	0.09155327440267705
116	0x3f8b9eb597bb56f6	0.013486307805048874
117	0xbfacb0b86ed5825e	-0.0560357699675975
118	0xbf926477e7c50040	-0.017961381455507075
119	0xbfa2d9fbe3a55604	-0.036819335497664724
120	0x3fb3c0d66a2eb4fc	0.0771612176165099
121	0x3fc0761aab723338	0.12860425349608717
122	0x3facd08fe4f16a2c	0.05627870244707753
123	0x3f8c007076550a34	0.013672712908946762
124	0xbfb241cf1b7c7855	-0.07131666585016323
125	0xbfc233f0e98b5bf7	-0.1422101154664401
126	0xbfc1fcb0e5f19cd1	-0.14052401759838642
127	0x3fb2493d76e06d20	0.07143005516302425
128	0x3f970aba4b1d9473	0.02250186046093856
129	0x3fb153a275248ca5	0.0676824127190679
130	0x3fb1d8d130f712dd	0.06971461720884116
131	0x3fa4eff7817955d5	0.040893301539351924
132	0x3fb7ba88fbec172b	0.09269004965252907
133	0xbfc997d57ff6d078	-0.19994610546348546
134	0xbfab212e8f9af1d1	-0.05298753264421275
135	0xbfc4e794593d8b6f	-0.16331724507753217
136	0x3f82bff710e7fb66	0.009155206874309218
137	0x3fc6fbdc93716f0b	0.17956120681162022
138	0x3fc2320ce56ca54b	0.14215241625178474
139	0xbfa170b5c6783c66	-0.034063034512762866
140	0x3fc294819183442f	0.1451570473205108
141	0x3fcbbf1f3b0c98ae	0.21677008040677975
142	0x3fc661c834056714	0.17485907116024946
143	0x3fc3fb4396d84714	0.15610546937437475
144	0x3f88666b9eeecb34	0.011914101398223666
145	0xbfbc4d2d51af7e8d	-0.1105526279857207
146	0xbfd06bc032c1f429	-0.25657658535766587
147	0xbfccd00337dd6cab	-0.22509803989200824
148	0xbfb279098242a52e	-0.07215938024696264
149	0x3f997a8514c11ffe	0.024881438628909784
150	0xbfa76244566e6413	-0.045671592283902517
151	0x3fc0531c69050db5	0.12753634574810993
152	0xbfac4a1f2a33a600	-0.055253003980237025
153	0xbfc1f8465571f208	-0.14038924381374351
154	0x3fb70a460dfb171a	0.09000051347092289
155	0x3fae71ee035e6097	0.059462964926923316
156	0xbfc3e8a76a1f71d1	-0.15553753549364882
157	0x3fab6641330b20ba	0.05351451633538447
158	0xbfaba561b6ba653d	-0.05399613719527927
159	0x3fb250968618675b	0.07154217504321762
160	0xbfbebee5510aa50d	-0.12010033825449203
161	0x3fb5074c9ec3e08f	0.08214262844183139
162	0xbfaa28844b5905f7	-0.05109036845943742
163	0xbfc1a107842b7491	-0.13772672608948658
164	0x3fbcdd43136a50ba	0.11275119041448792
165	0x3fabeac33ed29ae2	0.054525472086700125
166	0xbfc108695224862b	-0.13306919585106533
167	0xbfb0f2c61aa85e6b	-0.06620443487951781
168	0x3fc5ec0895b07fb3	0.1712656718163977
169	0xbf9f8fe41b263332	-0.030822338254029087
170	0x3fa830b1602ed622	0.04724649714573227
171	0xbfa7730da09b5ea1	-0.045799661498390216
172	0xbfc56a658a5a9a21	-0.16730946784555648
173	0x3fb1978a8f4bc0aa	0.06871858595309513
174	0x3fb296e4371eb9cb	0.0726149210520141
175	0xbfa1dc555070e245	-0.03488413435883734
176	0x3f7079e651c343c2	0.004022502598858448
177	0xbfa49d74c1834ade	-0.04026379453866523
178	0xbfc0f5805b23b60c	-0.1324921078698228
179	0x3fa5a81a65be7b9f	0.042298149986201176
180	0xbfc575ff8d2fa23b	-0.16766352075434718
181	0x3fd0171712cd661d	0.25140930973211245
182	0xbfb8062b78f573bc	-0.09384414389701495
183	0x3f86f69c0cfb217b	0.011212557932041225
184	0xbfc15cdf74ff7b4c	-0.13564675534049753
185	0x3fb99984f0299d7b	0.0999987684568761
186	0xbfa7b95455b71454	-0.04633582636191905
187	0xbfabba87525354a9	-0.054157475280285645
188	0x3f7dd391dcdd5e77	0.007281846786859717
189	0x3fcb8f1c0ff0b47f	0.2153048589547417
190	0x3fd14d2cfc0c8100	0.2703354321875082
191	0xbfb6f8cd4e8ae7d8	-0.0897339169268031
192	0x3fcb07e75d4d443e	0.21117870383980802
193	0xbfb559784e2aa950	-0.08339645298352605
194	0xbfb4c9111fadc20b	-0.0811930372563056
195	0xbf65f8a3673aa836	-0.0026820365399844682
196	0xbfb1f441886ec89b	-0.07013330059888505
197	0xbfd8a418f276ce76	-0.385015713483177
198	0x3fd159f652e98480	0.2711158570946921
199	0x3fb80348112643ef	0.09380007189453442
200	0xbfc5c1450c77f84a	-0.1699606238252634
201	0xbfc1f846fa4b8211	-0.14038932057793876
202	0x3fc85bb0ea5dac5d	0.1902981895794679
203	0xbfb3da05cfd26459	-0.07754551242614251
204	0xbfaae52bb4e9e10a	-0.05252968390863273
205	0x3fa8d37aef99cfc4	0.048488466022632376
206	0x3fb9f88b731c7a77	0.10144874153454873
207	0xbfb1a14f58d393b5	-0.06886764448752454
208	0x3fd05e6769c2b5fe	0.25576196029837195
209	0xbf8e729bd76f8a5b	-0.014867036354137378
210	0x3fd0926205087fd8	0.2589345025207854
211	0xbfcbb90ba6efca48	-0.2165846409912595
212	0x3fb98e3e872be374	0.09982672500690432
213	0xbfb182b7bed11ec5	-0.0684008446561349
214	0x3fb61b2fd5d6e51b	0.08635233851136485
215	0xbfb2219495551f23	-0.07082489629567283
216	0x3fb7d3d5ea08c746	0.09307610477187919
217	0x3fc88c7e37a72ff6	0.1917875072234662
218	0xbfbc3bcef1a43200	-0.11028760337303112
219	0x3fcb41144714175b	0.21292355986241315
220	0xbfa704fa2c7ab4ea	-0.04495984833679663
221	0x3fc94487d205cd8b	0.1974038863660151
222	0xbfae8c2d21a741a3	-0.05966321025664747
223	0xbfa95caba1a8c7eb	-0.04953514431362279
224	0xbfb8836e77dae87d	-0.0957554857840552
225	0xbfc9d85264aca763	-0.20191411891692743
226	0x3fb18cce3f3200c7	0.06855477373938178
227	0xbfa27ce41106ac16	-0.036109091833474036
228	0x3fc56a5db1622f33	0.1673085323458224
229	0x3fb446e4eafe4dac	0.079206759807042
230	0xbfd49d09ce45134e	-0.32208485740220716
231	0x3fb041d101884083	0.06350427901657167
232	0xbf91f6c2f6c03134	-0.017542883215399388
233	0xbfd04d53c6396918	-0.25471968038404347
234	0x3fbd4f8097f9c2ec	0.11449435911505262
235	0x3fc61eb17a74e052	0.1728116844112742
236	0xbfad4e2635261c79	-0.057236856449031266
237	0x3fd4212cfa83a7cd	0.31452488388333394
238	0xbfc187538e5875be	-0.1369423337027182
239	0xbf9e9e443d3c7796	-0.02990061401134588
240	0xbfa359cf99fce823	-0.03779457812056843
241	0xbfc69783d4fd8a90	-0.17649886989518793
242	0x3fc5b4efb479c781	0.16958423912324963
243	0x3fc00643d329c944	0.12519119082169017
244	0xbfa1477013ef0e83	-0.03374815219242768
245	0x3f8d9acc2b2af84d	0.014455409114244722
246	0xbfb8954ea0679bf8	-0.09602824607974003
247	0xbfbcafba6da0b4ba	-0.1120564000745671
248	0xbf75ac1c3ed3f1c7	-0.005291090329816623
249	0x3f9e25d2b8c22e3a	0.02944115879703999
250	0xbfb1fe2f2b63c457	-0.07028479394263464
251	0xbfd4091fa71414e6	-0.31305686298612867
252	0x3fb6ccb7077bf40e	0.0890612023612933
253	0xbfa119e12715e3f7	-0.033400569935970674
254	0x3fc3b8c67efee1de	0.15407639695128145
255	0x3fc6661f5e8fa8ca	0.17499153249020188

net.4.bias f8 [64]
0	0xbfb7db48f27ef907	-0.09318977279960815
1	0xbfa2bdfe1daadefb	-0.0366057788100402
2	0x3fa5256d1164590b	0.04130116307548989
3	0xbfc8e4278206b7e8	-0.1944627175229805
4	0xbfbee83474c9602f	-0.12073066569553313
5	0x3f9ab50147bab2c6	0.02608110428143353
6	0xbfc32eeeeeabb051	-0.14986979154434946
7	0xbfa3470cfcbaa19d	-0.03765144906111859
8	0xbf42bd647b85362c	-0.0005718937527860505
9	0xbfc6a5bfea970df1	-0.1769332786044369
10	0xbfb2b8fa9047088b	-0.07313505194091101
11	0x3fb726f258970200	0.09043802893484809
12	0xbfbf645e80b57a81	-0.12262526171023504
13	0x3fb01739f1b930cf	0.06285440589380474
14	0xbfc08077e33fe2ca	-0.12892054172677653
15	0xbfa674444e1f6410	-0.04385579541821738
16	0x3fbbd532b3b8bff0	0.10872189414726541
17	0xbfc07cc700cb67e3	-0.12880790270611361
18	0x3fa5c767523a3e9a	0.04253695372346762
19	0xbf884284a7a746de	-0.011845623365761278
20	0xbfb0b6a2546c6484	-0.06528677521818521
21	0x3fba555d9124a3c1	0.10286507409604352
22	0xbfbae863d3fbe52b	-0.10510848927869591
23	0xbfb9da66c3705d62	-0.10098879119356277
24	0x3fa7e15fb720e5da	0.04664134130912219
25	0xbfbd5ea042f18879	-0.11472512850153462
26	0xbfb06c8b8c4a806c	-0.06415626692842274
27	0x3fb5a325981c8aa5	0.08452067340526044
28	0xbfc036866249587c	-0.1266639690317709
29	0xbfa546ac6c6f956d	-0.04155482124023533
30	0xbfb84d3b99a209ea	-0.09492847920231609
31	0xbfaefcc5aee08961	-0.060522248837758814
32	0xbfb95d4583991e8f	-0.09907946074337758
33	0xbfa79cd45dd0e1aa	-0.04611838956083443
34	0xbfa541b3830c77bb	-0.04151688551631546
35	0xbfc1d9caa29d0bed	-0.13945897045240888
36	0xbf60b3820abab5c9	-0.0020387210732539557
37	0x3fac44d96a2897a3	0.0552127782905665
38	0x3fc29173bbac0004	0.14506384528795035
39	0x3f969ca33ba2430b	0.022081900133858173
40	0x3f9e7158a0873719	0.029729256437170812
41	0x3fc0f1352df96840	0.13236107582889822
42	0xbf8eea79f883fda5	-0.015095665833085923
43	0x3f8ba739a74d06ce	0.013502550523870307
44	0xbfb73d0aaa12973d	-0.09077517177737789
45	0xbfa2496d82a9f037	-0.035716459465192356
46	0xbfb048dce04d8781	-0.06361179805892726
47	0x3faa4c55d0193beb	0.051363641407640014
48	0x3f932abc67c72d61	0.018717712244137433
49	0x3f9cc937c5821f9b	0.028111335210752136
50	0x3fb4172a824e2cbe	0.07847848588260128
51	0xbfbcef0116ce0b8d	-0.11302191550025338
52	0xbfa9bcc312af8a8d	-0.050268264800043296
53	0x3fa7b29e9c33aef8	0.04628463417779288
54	0xbfc0f2987a4a9d07	-0.13240343066465973
55	0x3fab9a33ea1dc132	0.05391084893097044
56	0x3f9c27d99601a476	0.02749576547686102
57	0xbfb662a17121d8db	-0.08744248401658032
58	0xbfabd018b747b4f3	-0.05432202565484969
59	0xbf8bf52b0c1c6ee7	-0.013651214892483178
60	0x3fbddea9c7e300d2	0.11667882089659834
61	0xbfa9d0b311f015a9	-0.05042037576644571
62	0xbfbc0940648ef331	-0.10951616721190473
63	0xbfacef1854a526d9	-0.05651165040269541
