so3_experiments/results/sfm_simulation/model.pt (torch, 79227 bytes, 8 tensors)

net.0.weight f8 [64, 10]
00000000: 770f bd6b 5cca a43f 1218 7539 58c6 d6bf
00000010: dc3b a0ba f0ef ac3f 41df 8e8c d229 d1bf
00000020: 29e5 35a9 f1ac d4bf e3e3 7a3f 8cb6 c43f
00000030: 61c9 a11d 53fd c93f 1676 0582 0330 d03f
00000040: c014 4390 7892 d03f c0fb 9f3f 94b5 d9bf
00000050: 9b0b 1d28 180d c43f afcf 5934 2f33 ac3f
00000060: 2564 6981 e484 803f 1a91 e222 78de 87bf
00000070: 0ba7 bc55 3c60 d0bf 67e4 fdcd 2004 c03f
00000080: 58d0 2c63 da30 c43f a365 3a65 f4e3 d93f
00000090: bf97 84ed de65 913f d5df fee0 62c3 cd3f
000000a0: 31e7 d160 b9b3 c3bf 6f86 8efc 73a9 c33f
000000b0: bb5d 2281 13a2 b53f 55b8 e1fa d753 c33f
000000c0: 8384 6e6c 8daf b5bf 031b 7ffe a836 bebf
000000d0: be96 3423 147b c3bf 7272 5bfb e0d6 793f
000000e0: ba7c 26f0 c5a7 a3bf c9da 6282 5fb9 d23f
000000f0: 6366 7e6a d111 c3bf 02fe 96f6 5b5f bdbf
00000100: 0a74 7916 cf96 c4bf 3738 b9ac 0a59 d23f
00000110: b115 6808 cf6a d3bf 3453 96db 075a d23f
00000120: d337 2a0f ffa5 d23f 1c7d eb08 bf98 8a3f
00000130: a4f5 abe5 a360 aa3f fae9 96a1 c7a6 dbbf
00000140: ca41 a000 a4c6 ce3f afd5 98e9 ddb0 b3bf
00000150: d439 3c45 947f d0bf 648c 8897 2420 b6bf
00000160: e0c3 5cbc 7a83 c73f 8006 f04c e648 c13f
00000170: b53d c09e 4319 ce3f fb7d 66db 538a d53f
00000180: ec13 e1d7 90aa c83f d124 57a1 f557 c23f
00000190: dbd8 dbd9 ac01 d93f b004 ccf9 c0f3 d33f
000001a0: f63f 7377 da09 c03f 0120 e07e 20a9 c8bf
000001b0: 66c0 79f2 71a2 cb3f 24bd c452 340a a93f
000001c0: 6897 454e 5959 a8bf 2a16 9006 0f09 b63f
000001d0: 20db 01a8 0d2c d4bf 0fed ea39 c464 ccbf
000001e0: 126b 5ff2 3a65 be3f dab4 3458 a555 ca3f
000001f0: ad07 1204 65b6 c73f e56f 5dee 6101 d5bf
00000200: 1478 c610 1525 c83f a46a a1d9 7de5 bf3f
00000210: 3a2a ed2a 046b c9bf 8a70 1247 0c9e cd3f
00000220: 96d8 974d 304a b33f 544a f368 99b8 98bf
00000230: 43c6 6952 a801 b93f cf74 83d4 b640 c4bf
00000240: f6d6 11b2 c33a d0bf 0741 3cd9 5661 9cbf
00000250: a883 385e 269b d23f 8b73 a04c db9b c53f
00000260: 9a55 d0aa 3498 d3bf 7375 f442 cfab bc3f
00000270: 018c 9b70 0bf0 c1bf 00f6 2643 5a6d c5bf
00000280: 89fb 6787 8495 c43f 00c7 bad7 856a b4bf
00000290: d435 8d11 6b2c c83f b5bb d886 1d38 bc3f
000002a0: 6bde e020 532c d03f 6f5b 3f3b 609f c3bf
000002b0: 5918 93bd f0cd cbbf e814 00d4 5276 c2bf
000002c0: 6147 3c1d 5fc7 d33f dc4b 9e1e 8760 b23f
000002d0: cc3d 98c7 ea2c bfbf 14a3 1ce9 5910 cabf
000002e0: 8809 b8d6 fce4 b2bf efd4 2870 a10c ce3f
000002f0: d2e9 66d8 3333 d83f e5c9 2c75 be58 acbf
00000300: af8d af16 5412 9d3f a8fa e2dd 6d61 c8bf
00000310: 0c13 a817 a699 cb3f 9da8 85a1 5a06 d5bf
00000320: f2f4 bcb0 174a bcbf 0ab9 41d3 1b4e c33f
00000330: b1d3 9747 6159 babf 4dd5 ac5f fb98 db3f
00000340: 5309 ec77 c770 ccbf 5e4b 7f18 af0c d0bf
00000350: 75e3 2a2c d510 b4bf 4950 52b0 708e cc3f
00000360: 53fc 0951 bdea cb3f 9a30 9b8d bd68 c0bf
00000370: 2d22 c308 0c3f a43f dffd be14 97d8 d13f
00000380: 411b fabd 8388 9b3f 2855 8914 2eec a8bf
00000390: 1b31 8942 04d5 c23f a176 a71b 6722 d83f
000003a0: 3c99 a6da 0d70 c43f d6ac f748 3666 c73f
000003b0: b32a bf24 e35f c53f 4300 e0f8 6da9 cabf
000003c0: 920e 5e77 e942 ccbf b04d 738b 79d8 9fbf
000003d0: 01d9 9b69 e26c d6bf 46e3 45e7 2073 d23f
000003e0: a0dc f224 b6c6 cb3f f744 0891 359b c43f
000003f0: 1252 7b76 418d cebf 98b8 361b 33cc cbbf
00000400: 97d3 afbe fe41 d6bf e873 0adc cf56 b93f
00000410: ca31 53f0 7cdb ca3f 6183 216b 2b8a bebf
00000420: cdf6 0ab9 de47 cd3f fcd9 6458 fbcb d0bf
00000430: 2d16 af82 043e c1bf 74d3 cf84 bb1a c23f
00000440: e97f a0cf c593 d0bf 35dd bd88 cf38 cbbf
00000450: f388 fa73 dc41 c0bf df30 4e91 fe4b d0bf
00000460: b523 6482 a7e1 b03f fdc2 7b03 ff62 c73f
00000470: d062 4bcf 13da cfbf 1b66 5bf6 ce3a b1bf
00000480: 29c5 8c94 4edb b03f a1d4 e2e3 d07c c3bf
00000490: a400 c49c dde5 c6bf 5575 74fb 10ea b4bf
000004a0: f572 c5bc cc84 af3f 6f4c f639 268b d8bf
000004b0: 9fa1 5e95 228a c7bf d798 af9f 3aa6 c4bf
000004c0: a450 bf69 9fce d93f 2142 0fa3 1a36 85bf
000004d0: ce91 347e c0d4 d0bf 2b85 9b1f e8ee d4bf
000004e0: 571b d0ef 3cec d0bf bde2 e1ce 61dc 94bf
000004f0: 3f06 5f50 4970 c3bf 6562 e4f7 738b b9bf
00000500: 6de4 e29d a6e1 c03f 8322 4443 4f3c 9e3f
00000510: f804 137b 1874 c1bf c5af fa56 7073 af3f
00000520: 99ed 3f94 3f20 c7bf 1ca4 f9c1 e47d 9d3f
00000530: 762f 6497 36d9 c2bf a55f aea4 88c0 aebf
00000540: fd28 5abb 42d8 b5bf 66a8 72df f080 dabf
00000550: 9589 f9cd 50a9 d1bf ba35 87c8 1f49 c33f
00000560: a28d 0072 d69d c6bf 835d e6df 8b69 a53f
00000570: 06c0 a2db 6bef d3bf f979 3c10 5f42 dd3f
00000580: 8ccd af88 1c3c c4bf 69e8 22d3 9594 c5bf
00000590: 217d 64cb ad1d d53f 4dbf 13b3 ccde dabf
000005a0: c18c 101e 6ef0 d3bf cba5 4fbd 971d b3bf
000005b0: b59b 8b0b 9cfe bb3f ee07 cc56 9eb1 b53f
000005c0: 5da9 df67 5bc7 c7bf 1cca d19a 8932 b3bf
000005d0: b560 2184 c10a ce3f 1672 d72f b4bc c73f
000005e0: 8919 ae1c 44bc b1bf 4616 242d 521e d93f
000005f0: 8939 766b a6d1 d3bf 8ab8 52ee ab20 d63f
00000600: 82fe 7a96 a01a b13f 9ade 85aa f2ec 963f
00000610: 50a3 5799 fbce 87bf 6862 49b4 95f5 b33f
00000620: 4a5c 2e30 084c c4bf 3a37 044f 512e bdbf
00000630: dfb1 eb35 ccdb 93bf acf0 29b3 9590 d2bf
00000640: 8c82 65f3 29eb a33f 5bd8 df55 c91c 8b3f
00000650: 9303 6774 b251 c83f 0acc cb94 0435 d1bf
00000660: 9c60 85c8 7bba b5bf f072 7f50 9603 d23f
00000670: 4c39 2343 f6bc d2bf 8ed2 8a05 9739 a2bf
00000680: 0dce 178f 6058 d53f 79fa 6275 c7aa c23f
00000690: 090a df1c 0ea9 a0bf 237b a541 f814 ccbf
000006a0: ce48 47da 71b7 b93f c977 c7b5 05e5 ba3f
000006b0: 9dfe 09a3 353b a33f 207c 4153 c1f3 cf3f
000006c0: 5e87 ee0f d79a d8bf ca32 bd27 6ce4 af3f
000006d0: 9e8a 5b17 38a8 c13f 79a3 e17a 4951 cc3f
000006e0: 9bb7 f53d ffa9 d83f c3ca fec1 ffcf cf3f
000006f0: eeaf f53f ce85 a73f cea3 5c2e 3c0c b3bf
00000700: 941f 8dfb 90e7 c93f bfde 8dd9 74f0 aebf
00000710: 1800 1bf9 765b a2bf 9b8c 5f51 f102 aebf
00000720: 8745 5812 de80 ce3f 2a77 bb22 e780 a13f
00000730: e779 0cd6 ec7c d03f 15c4 c351 79a0 cbbf
00000740: 2faf 2e22 781b cd3f 6a3d 7737 783e d6bf
00000750: aa01 96d2 0bab d73f b4f0 99a7 221e d6bf
00000760: dc3c 010f da46 cabf 582b 58c6 3dff ca3f
00000770: 1626 492c 18b5 d1bf cdb6 e73a a900 773f
00000780: 913a 0825 5fa2 e0bf a452 88c4 6e5c a83f
00000790: 7134 c4a0 b2ec cebf 2aa1 8658 8d8f bb3f
000007a0: 27f2 9bad f6da d4bf b865 41b0 c890 babf
000007b0: ab28 424b 6db2 9e3f 619f 98fc e800 d4bf
000007c0: fc0c f4b4 907f afbf 0601 abad bbc8 d3bf
000007d0: a7b2 2cc2 2823 ccbf 35e1 0c1b 26e6 d73f
000007e0: b3e1 c14a 9813 d83f aa72 2f7c 2968 a6bf
000007f0: ebd1 b3a8 e0e0 cabf bebd c5ba ff8a cebf
0.040606392051386324 -0.35585599528383327 0.056518099576457564 -0.2681776402127874 -0.323055663342148 0.16182091807948415 0.20304335543512322 0.25293052384754
0.2589398773964824 -0.40170770848629545 0.15664960821785887 0.05507800592468414 0.008065972518283069 -0.011654795231443905 -0.2558737599634788 0.12512598093215674
0.15774087755710542 0.40453824887807793 0.0169901688069769 0.23252521501649306 -0.15392224528823698 0.15360879737731944 0.08450433638278458 0.15099620580753262
-0.08470996758707554 -0.11802154744428255 -0.1521935626889696 0.006308440051466678 -0.03838938290140832 0.2925642751028304 -0.14898126315965773 -0.11473631639727702
-0.16085232350715756 0.2866846739533488 -0.30339408703761267 0.28674503749907676 0.29138161164234794 0.012986652812684123 0.051518556390856035 -0.43205443172669755
0.2404370310837421 -0.07691752389003768 -0.2577868152738152 -0.08642796229882915 0.183699933980761 0.13503721958845816 0.23514600039969272 0.3365678446370734
0.19270525494553625 0.14330931070279587 0.3907272460486532 0.31175255197747287 0.1253007014515785 -0.19266134448139385 0.21589493121746556 0.04890597830159951
-0.047556677632015376 0.08607572469926397 -0.3151888027854728 -0.22182514980327325 0.11873215119650762 0.20573870474746664 0.18525374125243613 -0.32820938375311776
0.18863166159729927 0.12459551394696661 -0.1985783776857078 0.23138574095071746 0.07535077947963695 -0.024141690283452213 0.09768154155769886 -0.15822492005000874
-0.2535866965257435 -0.02771506977939089 0.29071959687467563 0.16881886712590374 -0.30616490059886703 0.11199660668031246 -0.14013808248918738 -0.16739967612186035
0.16081291782026266 -0.07975040928684152 0.1888555370045838 0.11023125211862246 0.2527053662374558 -0.15330126660293383 -0.21722230202266493 -0.14423594810083462
0.3090436730864124 0.07178539750593366 -0.12177913067738827 -0.2036239994279404 -0.07380657426987203 0.23476045586145441 0.3781251538563569 -0.055364562800963836
0.028390230068806307 -0.19047330221470316 0.2156264892111256 -0.328512819038801 -0.11050556244750334 0.15082118811864859 -0.10292633054616719 0.4312122759177626
-0.22219174724166155 -0.2507741679411789 -0.07838184669789235 0.22309692964029385 0.21810118157370315 -0.1281964246212553 0.03954351050339642 0.2788446142767195
0.026887949438356932 -0.048676910406962925 0.14712575196097863 0.37709977818108525 0.15966962028796583 0.18280676424851688 0.16698874754213974 -0.20829558040714077
-0.22079199150549705 -0.031099223266961296 -0.3503957778297178 0.2882768877530463 0.21700169376501766 0.1609866102376498 -0.23868578229179654 -0.2171691782836589
-0.34777802106628414 0.09898089525309184 0.20982324347131814 -0.11929580083370929 0.22875579867643694 -0.2624500621053867 -0.13470512753535627 0.1414408110137192
-0.2590193297965003 -0.21267122437323285 -0.12700992262859465 -0.25463833036407196 0.06594321187379999 0.18270862264719048 -0.24884269353676425 -0.06730359568191384
0.06584635855394495 -0.1522465813374412 -0.17888994364330302 -0.0816965688613512 0.061560056727762026 -0.3834930006061716 -0.18390304845275993 -0.16132290646709777
0.4032362492264474 -0.01035710153692643 -0.2629853470300788 -0.3270817097346305 -0.26441882533292954 -0.020371940853211912 -0.15186420845388857 -0.09978413393072001
0.1318863173417272 0.029526937943077158 -0.13635545739638366 0.061427603356917916 -0.18067164171939679 0.028800558413795682 -0.1472538222518513 -0.060062666037253444
-0.08533112596538568 -0.4141199285610412 -0.2759592067215178 0.15066907206930386 -0.17669182363998198 0.04182088001396791 -0.3114881176834391 0.4571759851986879
-0.15808445619732614 -0.1685969620646717 0.3299364553694933 -0.4198486088562177 -0.3115496915435863 -0.07467029926160433 0.10935378343456999 0.08474149340693746
-0.18577139446217475 -0.07498989133618078 0.23470324470213702 0.185446284637593 -0.06927896213719555 0.39247564705178595 -0.30967102522199547 0.34574411653273585
0.06681255029524816 0.022388259561437175 -0.011625257126938543 0.07796607638864261 -0.15857031204788746 -0.11398800067055684 -0.019393149176652243 -0.2900747537276043
0.03890353294514623 0.013238499577692566 0.18999319728575567 -0.2688609555327167 -0.08487676282436712 0.28146894322507787 -0.292783322872215 -0.035595626284167556
0.3335191151993236 0.1458367655922819 -0.032539788269350174 -0.21938994603530046 0.10045539454521021 0.10505710304229789 0.037561107780672766 0.24962631764626142
-0.3844506888946081 0.06228960023017789 0.13794613972193742 0.22123068332737342 0.38537579584851195 0.24853512737680292 0.045942731196959005 -0.0744054425419016
0.2023793438222553 -0.06042828708353686 -0.03585407057607898 -0.058616200621849766 0.23830772300474853 0.03418657587984193 0.257624825508087 -0.2158347748986961
0.22740079564152313 -0.347562841573526 0.36981483044658126 -0.34558931701009077 -0.2052872250810428 0.21091434654985153 -0.2766781265714554 0.005615864806242943
-0.519820759132772 0.047580205431733164 -0.24159844255374055 0.10765918170239233 -0.3258644767190923 -0.1037717275916269 0.02997751972046873 -0.31255554835887805
-0.061520120705631925 -0.3091267772652063 -0.2198229740255517 0.3734221710360715 0.37619597721598125 -0.04376344338354461 -0.2099877189390463 -0.238616911122774

net.0.bias f8 [64]
00000000: d4ac 4b96 5846 d1bf 296e 52f9 d559 923f
00000010: b4f8 9a23 bbac b4bf f5e5 fd25 b6a0 d3bf
00000020: 9a90 f0b6 78ae a4bf 86f3 42d6 a8ac d6bf
00000030: 9c4c 9e8b 67b6 bc3f da31 09bf c7c6 cb3f
00000040: f931 9bc5 b7e4 a53f 7720 c681 2fa7 c73f
00000050: 1b5f bc71 ee5c b03f ba3f d075 e8b5 c23f
00000060: dde1 6056 e02f a3bf 0002 7d87 af19 c23f
00000070: 7f49 5a37 8172 d03f 12a9 5003 eb47 d2bf
00000080: 476b e4f3 d6a5 d13f dfc8 9f63 e562 acbf
00000090: 5c02 efc4 e329 b9bf 68fd beef 3e21 c6bf
000000a0: 5da7 a3b3 f55f c93f 8e88 46a3 054e a83f
000000b0: e011 95e0 0ede 87bf 5b30 23a0 d85a debf
000000c0: 728d 7aa0 09ee 593f 5044 ebda 4000 c2bf
000000d0: 469f 80ed b792 5ebf 2d6e c68c fc42 cfbf
000000e0: 0f72 ca40 f8d3 c9bf 5445 123a 418f c93f
000000f0: ab61 300d 75ad b3bf 7fee bb2c ddf6 d2bf
00000100: f656 117f 3ff4 c13f 270a b293 ea8d c93f
00000110: 621a 9c3e 8bbd c23f 1db9 e000 114d c43f
00000120: bc30 e7af 6b38 d03f a9f6 22f6 c8cf ce3f
00000130: b5d5 63c3 8d38 aebf d77b 4c8d a0c8 c53f
00000140: 77db aa0c 6568 7ebf 72c7 5134 3619 c13f
00000150: b93e 1bc5 a1c5 bdbf 60a9 6637 ffac d0bf
00000160: dbcd 975e b1c2 913f 2299 ade0 46e3 abbf
00000170: 14d3 0f64 42fb cdbf 377e 16fd 803f c6bf
00000180: 4586 7e72 c70e d03f d920 27df ab72 aabf
00000190: 0db1 a96f b545 b73f bd47 62c8 5a59 b53f
000001a0: 5a44 0669 f266 b53f 5d59 b7e0 181f bd3f
000001b0: c392 c3e9 244f d1bf 381a 7e95 3d9c a8bf
000001c0: 5469 3f70 65bf c43f 15e7 1ed8 d116 d9bf
000001d0: a365 2ddf be01 c03f 5e6f 402b b605 aa3f
000001e0: 8dfd 2588 06e9 c43f b5a9 dce9 a5c1 c0bf
000001f0: d0dd 03c3 6c8c d9bf e5d2 2d52 6e75 b5bf
-0.2699185817461516 0.017920821516424965 -0.08076066607734128 -0.30668405256400827 -0.040393612224108824 -0.3542883007428873 0.11215827139521867 0.2170037920754016
0.04276060378251496 0.18478959881418053 0.06391802098039216 0.146176393056974 -0.03747464231895823 0.14140886417045806 0.25698881536040824 -0.28563952754724753
0.27574704949954704 -0.05544201699366779 -0.09829543645811029 -0.17288958269453336 0.19824095984886983 0.04747026079282178 -0.011654010990818031 -0.4742948116152143
0.0015826314937975286 -0.14063273133663978 -0.001866035096108791 -0.24423176645073977 -0.20178130305875228 0.19968428931728488 -0.07686549732205232 -0.296317380605366
0.1402663584182659 0.19964344226544137 0.14640942151182218 0.1586018804823163 0.2534436433604801 0.2407160951460601 -0.05902522096759403 0.17018515490869277
-0.00742377731756149 0.13358190111790297 -0.11629687368553733 -0.2605588952088933 0.01734425678109895 -0.05446835987713629 -0.23423032651739872 -0.17381298406415777
0.25090204411580813 -0.05165612315210106 0.0909074208845519 0.08339469330010636 0.08360209526132803 0.1137557552932313 -0.270455578122249 -0.04806702089176834
0.16209094982952854 -0.3920178041986316 0.1250532712681834 0.05082482603049131 0.16336137435790157 -0.13090967101136433 -0.3991958527035111 -0.08382310396502708

net.2.weight f8 [64, 64]
00000000: a4b3 ea7f 8ada b93f 1fcb 00d1 8bb7 a33f
00000010: 7948 db9c 6c92 babf ea9b 2f81 79d2 c6bf
00000020: f43b 7dfb dc5d 9c3f 1455 5ae6 d367 bc3f
00000030: e041 b1df a88f ba3f 9e5d a58e 51ad a33f
00000040: 1944 3af1 7a73 ca3f 1d07 e1f3 dade bc3f
00000050: 8e51 968a 9db1 b23f 85ee d04c e56e bf3f
00000060: d13d 29ed b16e 6c3f 2e7d df95 2f94 a6bf
00000070: 4bb8 66ae fdaa b43f d654 98d7 eb5b bebf
00000080: ad3e 2bb7 dead aabf 41f5 3598 3474 c4bf
00000090: 9afa 2da9 f311 b3bf df7f 5838 e773 a8bf
000000a0: 8312 5925 053c 90bf 0205 116d ac73 bbbf
000000b0: ba12 a863 32ab c13f da14 cc3e 4737 b1bf
000000c0: a2c6 cd39 4bf8 babf 2629 65af 0b20 b0bf
000000d0: 4196 e8b7 b069 b43f 89e4 0255 8d19 a2bf
000000e0: 41c9 363d c5c1 b03f d027 40d9 69da b23f
000000f0: 79b1 f781 75b7 9abf 3e4c 7d81 fbbd b93f
00000100: 60e1 342a bcba bcbf 89e9 b4bc 6e19 be3f
00000110: 261f 038b b198 9cbf e7ab 0e65 9495 b2bf
00000120: 7a9a ad4c 175c 973f ccbd b449 51c9 b33f
00000130: c404 61e7 2dff 853f fe04 457e ef11 bebf
00000140: 293e 9101 cdf5 a23f a381 f0a4 406c bfbf
00000150: 4444 a559 267b b33f a0a7 c180 304c b0bf
00000160: 794d 655d 19ff ae3f 2b8c 334b 344b b93f
00000170: 0568 d2a6 8670 aabf abfb be14 e8cc b73f
00000180: 04a5 bdc7 d21e 96bf 1d4c a26f de5d a3bf
00000190: aaf1 59b9 50d7 b2bf 8554 e72e b82c 85bf
000001a0: e982 7289 e8fe bbbf 40f1 8b7e 4bff c43f
000001b0: 8ff0 d960 50e3 a43f d747 454a 5999 9bbf
000001c0: e830 e053 ea16 b23f 91ea 419e 1987 993f
000001d0: 72ff 4ac4 e400 bb3f cc90 5bad b85c b43f
000001e0: 5d00 f9f6 02f7 b4bf d9cb 8499 2e56 a8bf
000001f0: 4136 9727 919d a13f b7ad a1d1 aaed a4bf
00000200: e13b ade3 b193 a13f 1a16 91c1 892d 91bf
00000210: ddda cb8d eb3c c6bf 1dcb 0961 33c3 a93f
00000220: 1d8d f8a6 7f78 b63f a3fe 4a29 6eff 88bf
00000230: 6012 ea51 a871 b33f 36f9 9286 2c74 b6bf
00000240: 6c8c 30a9 9e60 883f 39de 5a09 fbb9 bb3f
00000250: 70ab 5519 37fc be3f 0fd4 58be 3ef4 c53f
00000260: 586b 11fb 5c3b 9f3f 47f6 80f1 d0b0 a93f
00000270: 5268 84ab 7860 91bf 369b b4f7 1ed3 a43f
00000280: aa98 3e92 7bb2 c83f 670f c2a0 65c3 b53f
00000290: de5f cfdc 473f 93bf 1d5f 20f3 a2bc 973f
000002a0: dfac cb36 3d97 8abf 953d 855e 8b70 b6bf
000002b0: 97cd 5d44 8c2e 9bbf bb65 43d9 54d9 b3bf
000002c0: 2670 8b63 0ea4 acbf 0e45 6d9e b443 a93f
000002d0: 6677 f12b 3086 c53f a67a b6b2 ff84 a03f
000002e0: 32e8 95a9 45c6 ac3f 99bd 8774 4d6c a33f
000002f0: 4bfd 8660 6d72 a43f 153e 9038 eb9c b53f
00000300: 1e03 0a91 078a 8ebf deb3 74c8 3d24 c2bf
00000310: b96a cc7c bb09 7bbf 20ca cfb1 ec0c be3f
00000320: c716 36df 97b6 af3f b1a9 1fa7 d4db bd3f
00000330: 4a3a 27b4 fc15 bc3f e305 8ddc 8c8f c83f
00000340: 4533 0286 0493 a53f d071 8109 f9d1 8fbf
00000350: 3994 2820 2647 9e3f 2535 6f28 20a0 9cbf
00000360: 0dd8 9716 2a66 c03f 6178 510e ff37 adbf
00000370: b33d 34f8 be4b a0bf eb24 e6c4 eae5 b3bf
00000380: c7e1 292a 7985 b3bf b807 6b0d 1d8d b6bf
00000390: d89f 7017 1732 c53f 55cd 72e6 ad17 a0bf
000003a0: 5355 f2ed 25e4 b2bf 5ff1 6743 53b4 b4bf
000003b0: 068d 3abc 7bad cbbf 0fa0 9a50 1370 bfbf
000003c0: 5949 70f7 d558 aabf 32c8 b30c 944a 89bf
000003d0: 669e 35e3 ecb9 c0bf 3457 21e3 97f9 9bbf
000003e0: bae9 9fa3 8332 b5bf b5e2 e4fb 6c41 42bf
000003f0: 87a8 3a9a 0b8a 923f 0da5 c099 8731 b6bf
00000400: 26b8 cb53 e2a7 a0bf 5922 16b6 c46a 9bbf
00000410: 22b3 0c3f a4f8 9dbf 8d2f 955e e5d2 bb3f
00000420: 9cd6 32f7 532d a53f 6212 a487 c547 543f
00000430: ea7c 92d3 4354 b3bf 18d2 dcb3 679a b13f
00000440: b442 af66 716c 70bf 7d12 a082 abbd bb3f
00000450: e639 c9c9 9790 c83f 2b26 7dab 6fea cb3f
00000460: 7448 9103 f604 b0bf 4793 21fd 6e49 c1bf
00000470: 0f4e d4e3 30af ac3f 84a3 2ae4 19e4 b63f
00000480: acd7 8eb4 a465 c23f abd9 f9c2 8c6a bd3f
00000490: 8e8f ba1e 10d0 cabf 24fa 660a 1b4f 963f
000004a0: 5ef1 16d1 b400 a1bf 8159 19cb 2ec0 babf
000004b0: dbad 1d99 f1ae a93f 6a93 9d4b 295d c7bf
000004c0: 5ebe 5cc3 6e76 babf 861a 0ada abb7 a63f
000004d0: f593 b972 c431 be3f 9ed3 d21e d965 b03f
000004e0: b6b6 2046 b2a8 aebf d8be 8b39 58f5 b93f
000004f0: c081 0e58 dd44 c73f f0c9 bd9c a0fd b83f
00000500: 0dff 5732 7b34 a1bf 86d2 9041 d6f8 bd3f
00000510: 8bde e898 149d a6bf d895 757c 784a b13f
00000520: d71e 50aa 70ee bbbf 296f a818 476e 90bf
00000530: 3715 971d 14fd a53f 9dd8 b96c d2fe ca3f
00000540: 6cec 5fa4 b7dd 763f 0bcc cf26 aae4 653f
00000550: cd0b fe8d ec67 c33f 7025 7a79 3f4e b73f
00000560: ae11 2d7a ff4b 883f 4736 65a3 93da bbbf
00000570: 5a74 52af a738 be3f 5e38 2917 dc76 b53f
00000580: 1235 1f1e 1b9a a0bf 0ac4 a2e6 50d7 b2bf
00000590: 63c2 5536 cdfe 9abf 2c2c 8848 151d 61bf
000005a0: cb1f 6b34 e8c5 bdbf 2b11 2bbe cddb a43f
000005b0: 1aad 2e18 fd0d b6bf 4769 9ea1 5050 bd3f
000005c0: 03da 1e89 dbae 83bf 847c 58a7 593a bfbf
000005d0: 2b3b f7af 3e4d babf c3f8 aae5 48a2 aebf
000005e0: d2d8 1496 322c b53f fe6c 5d97 2617 a8bf
000005f0: f90c d63c 10ce c43f 5e63 9d1e 2517 b83f
00000600: cfe1 359a 06bd b3bf 3686 836a b042 b8bf
00000610: 98ff 985f 3d4e a93f 03ea e9fb 8853 bd3f
00000620: 3aad 9c6d 27d2 b73f 1233 b616 e45a ba3f
00000630: 655c 8b9c 132c b53f 6846 11ff 3e6f a7bf
00000640: 29b0 8c7b d675 763f d456 45a4 9d1a c2bf
00000650: 9903 67dd 957d b7bf 69cb 3fb9 6b7a acbf
00000660: e04e 4ba2 8b23 c3bf da35 a07f 10d9 903f
00000670: 8c49 3380 593f c6bf c82f 5996 6dec ae3f
00000680: e958 5985 b887 c2bf 46bb 6755 6753 a93f
00000690: 3d4b c08d f576 90bf 8260 5b37 6f7b c4bf
000006a0: 84b4 2109 63b5 c13f fece 8053 046f c73f
000006b0: 9fd3 68f1 6888 b9bf e8db f2ca 9e1f b93f
000006c0: 7248 9870 4eae b3bf d8d6 0807 c306 c2bf
000006d0: 708b 87c7 4195 b43f c159 dde8 ebf6 bebf
000006e0: c221 0785 b74f 85bf a9c6 d9f8 ca20 a9bf
000006f0: aa6e d6a0 7bbb ad3f 8602 ea33 3804 b7bf
00000700: ef09 0808 27e3 a0bf e66b c0c0 f924 b33f
00000710: 210a 56c7 81ec c43f 5388 ab41 d7e8 bcbf
00000720: 8f0b a014 784a 8a3f 6044 18d6 2b54 813f
00000730: b64b 8f91 48fb 663f 3241 3af3 bba9 b63f
00000740: 5549 dba1 6c4b 83bf 0b48 f080 6b70 b43f
00000750: 5a56 bf23 78c3 c2bf 656b 3812 fc0a a23f
00000760: f373 bd4a 7cde b33f 9571 8d22 968e b0bf
00000770: 7861 235e c615 b23f 1851 1066 48ca b03f
00000780: ba35 1907 071a c63f f8e8 1680 a30c bfbf
00000790: d87b 6000 d0c6 ad3f 69ab d66c 2620 c13f
000007a0: 41fc 4af7 75f9 c33f 6153 c8ea c0d9 973f
000007b0: fcb6 775f 444e 93bf b919 e138 d689 c6bf
000007c0: a550 12af 671e c13f d356 594c b23b 9fbf
000007d0: 6b9c d4ea 2ca2 99bf d534 832f 07f4 c0bf
000007e0: fc38 7b88 7ca9 a6bf 5395 755c 990d c03f
000007f0: ea6d 7ce9 311f b83f bb47 4f15 ab38 c73f
0.10099092123955572 0.03850972105319372 -0.10379675702577797 -0.17829817588719205 0.02770180973976362 0.11095928548668993 0.1037545724987079 0.03843169084819496
0.20664917734805568 0.11277550176694402 0.073022695860635 0.12278588414567977 0.0034707522511678653 -0.0440993185472912 0.08073411472170837 -0.1185901070933427
-0.05210777269314568 -0.15979630882422138 -0.07449267273293927 -0.04775927126706824 -0.015853958515679622 -0.10723378813510823 0.13803701273004326 -0.06724972994932746
-0.10535116349435694 -0.06298897773846032 0.07973770608858734 -0.035351196887355725 0.06545670265658023 0.07364522508592519 -0.026090465600576238 0.10055515204776186
-0.11222435026582422 0.11757557017418753 -0.027926229581480964 -0.07259490458697791 0.022812236838400037 0.07729061173880963 0.010740622161508624 -0.11746117432359779
0.037031561318709834 -0.12274555231898047 0.0760978669034254 -0.06366255897014961 0.060540001536220474 0.0988037761303963 -0.051639755119325094 0.09297037607664886
-0.021601956788264168 -0.037825537802881316 -0.0735979511754922 -0.010339201861748979 -0.10935834270140855 0.16404098204646722 0.040796768019363154 -0.026952166708106375
0.07066216037509643 0.02492942837168727 0.10548238556202508 0.07953981621136846 -0.08189409761053086 -0.04753251670845033 0.03440526588711324 -0.04087575730303732
0.034329947512212085 -0.01677527660310405 -0.1737341348995959 0.05031738814877527 0.08777616335332934 -0.012205944667015805 0.07595302581655394 -0.08771017346859797
0.01190303758455099 0.10830658892052093 0.12103599899789486 0.17151626867567457 0.03049989015958529 0.05017712543529434 -0.016969571560459258 0.040673225152480105
0.19294685974927478 0.08501277136570949 -0.018796084263016037 0.02318052872587294 -0.012983778223733143 -0.08765479142788586 -0.026544753716235183 -0.07753496460227087
-0.055939149524164386 0.04934467729493451 0.16815759797730861 0.03226470047524303 0.05620019621979146 0.03793565795410387 0.03993551066695974 0.08442564135497606
-0.014911707986585972 -0.14173099792370086 -0.006601078389190712 0.11738471356492441 0.06193995094058163 0.11663559990089457 0.10971049688598913 0.19188080567441465
0.04213728080603699 -0.015537210085477066 0.029568286621856486 -0.02795458075325032 0.128117810279662 -0.05706784295829049 -0.03182789592585369 -0.07772700602631104
-0.07625539092430876 -0.08809072091665271 0.16559113163498185 -0.03143065870372178 -0.07379376467937009 -0.08087654491095496 -0.21623179140906518 -0.12280388563033305
-0.051459013419065065 -0.012349278104441284 -0.13067399114810313 -0.027319310415200707 -0.08280203575842551 -0.0005571157596825001 0.01810472611274652 -0.08669326308940502
-0.032530853966690906 -0.026774476636577258 -0.029268804882281015 0.10868676718854271 0.04136145012436751 0.0012378148081221498 -0.07550453105294577 0.06876228467155732
-0.004009669278233364 0.1083628839406376 0.19191262581666918 0.21809192536811514 -0.06257569872949081 -0.1350535140983544 0.05602410107726651 0.08941804714653584
0.14372690979297198 0.11490707168727592 -0.20947457790782348 0.021786139020827502 -0.03320851375926524 -0.10449497660133568 0.05016283983317368 -0.1825305575577219
-0.10336963910662564 0.04437005077948179 0.11794688988591402 0.06405407907989377 -0.05988080125858401 0.1013999119274972 0.1817890815700718 0.0976200468701689
-0.03360352506206086 0.11707820034718894 -0.04416717878887962 0.06754258192594109 -0.1091070571711684 -0.016045676116944883 0.04294646130760287 0.21090154942402686
0.005582539894017118 0.0026725123666380183 0.15160901005955765 0.09103771892309509 0.011863704601304228 -0.1088039659418537 0.11805198698353206 0.08384490552381993
-0.03242573492716806 -0.07359796171910218 -0.02636261600622659 -0.0020890632333752292 -0.11630107192752275 0.04073946901692901 -0.08615094986332786 0.11450675912638984
-0.009610858079992296 -0.1219841035422054 -0.10274116321600661 -0.05983188441813205 0.08270565189454551 -0.04705162618366819 0.16253855677141596 0.09410316464835719
-0.07710305466560573 -0.09476759529527432 0.049425046844134346 0.11455589437711215 0.093050445805308 0.10294938616261742 0.08270380565532916 -0.045770615230719625
0.005483472655026169 -0.1414372493842878 -0.09176003127414702 -0.055621496547152934 -0.14952226089973575 0.01645303515402028 -0.17380827674658084 0.060397553065370924
-0.14476686965162536 0.04946444432777368 -0.016078793312839002 -0.1600169201180997 0.1383479876125514 0.18307546689322146 -0.09973770040308104 0.09813873724748101
-0.07687845467470014 -0.14083135455591989 0.08040248032879815 -0.12095522341892374 -0.010405954119861675 -0.049078314664155194 0.05807100618696144 -0.08990813510355097
-0.03298303578414507 0.07478295284128897 0.16346761925895328 -0.11292786935112646 0.012837350968771392 0.008461325141100484 0.002805368171246293 0.08852743805096422
-0.009421204270812092 0.07984039209284803 -0.1465902494953067 0.035240056251686615 0.07761360954960121 -0.06467569678847547 0.07064475820823712 0.0655865906886145
0.17266929480176235 -0.12128660084900733 0.05815744404411988 0.13379364313490363 0.156050439594738 0.023291601495731288 -0.01885325272262771 -0.17608144547757634
0.13374038742461383 -0.030501161489459982 -0.02503271277705858 -0.13244714565227036 -0.04426182905227624 0.12541501059164747 0.0942259974512393 0.18141687908661006

net.2.bias f8 [64]
00000000: 9ca7 5e18 b896 babf 7d6d 409c 25ce 70bf
00000010: fa78 0df2 d96f b4bf 503b b257 4ab1 8a3f
00000020: 6c7f 7806 5497 b2bf db9f 5a66 48a0 c1bf
00000030: 0fd4 88b6 2293 bbbf 3e98 d586 53f4 b43f
00000040: 89ff 7f24 3f28 b53f c177 46b5 a2ba adbf
00000050: 1234 66d4 0fb9 a53f 2b17 aa1c 4916 acbf
00000060: 21a9 4451 4af8 b33f f1d9 bc2d 64e9 a03f
00000070: 5ce9 1bb0 f584 bfbf 5709 ed47 e32d c0bf
00000080: 0c40 d5ee 3a67 a03f 07e4 b2ff a72f b7bf
00000090: 7ed3 d2dc 5adb ae3f fa13 deee a8ba 8b3f
000000a0: 3403 05f7 65fb bcbf c1a4 6bfb d30f aa3f
000000b0: 2405 359f ea6b b33f 8351 3f2b c3da b6bf
000000c0: 4c85 d03f 147c b0bf 2072 4bd8 1ce4 a43f
000000d0: a510 e4fb a3d9 b1bf 767e ae10 4158 c2bf
000000e0: 06b2 9432 04a9 c03f 3834 ab84 709e 92bf
000000f0: 1bc8 440d 338d 723f 3f59 1421 192e b5bf
00000100: 96d6 4942 f2f8 903f adc1 a751 1347 81bf
00000110: 89bc 330e 39df b23f ae94 9a72 f985 91bf
00000120: ea7a 811c 8006 bd3f 622a 77e6 c516 bd3f
00000130: 51dc 2e29 9ca1 b1bf 9bed 9bdd a42e aebf
00000140: 2872 8c98 dfb2 9e3f 88f7 96c4 7123 bb3f
00000150: f778 1b46 d86e b93f 8418 fce1 bee0 a4bf
00000160: 1042 d155 3277 b13f 939a 35de 8f45 ba3f
00000170: fa92 e03c 0205 ad3f 768a 36d6 4dc5 abbf
00000180: 6f65 78ba 162e 6fbf 1c9d 55b2 625f 9c3f
00000190: 62b3 d70b 65f6 9ebf 81b6 5502 ebcd c03f
000001a0: 8842 bbc3 d558 b43f 7b8c 213f 729a 923f
000001b0: a208 b648 d8ab aabf cc44 bfa1 94b5 a0bf
000001c0: 7b25 d19a 2318 b4bf fa68 706b 3bf9 b33f
000001d0: 4228 2f3c cdaa adbf 36a4 0121 ff80 c3bf
000001e0: 5635 c487 f475 b43f ff6f d0a2 b9fa af3f
000001f0: 7263 ee67 0d45 95bf 9822 dfee e9d9 b13f
-0.10386229128803709 -0.004102847018681796 -0.07983171615112275 0.013033467103267832 -0.07262158544517455 -0.13770394323114385 -0.10771386104973167 0.08185312311033585
0.08264536515343769 -0.0580645414622576 0.04242753474964202 -0.05485752558619902 0.07800735935294202 0.033030634482589145 -0.12312255429779867 -0.12640038501747128
0.03203758397523879 -0.0905709265961293 0.060267295318602074 0.013539619245202406 -0.11321103363753765 0.05090200847718896 0.07586542498485876 -0.08927554899066163
-0.06439329679462452 0.04080286159817015 -0.06972718143157637 -0.1433183032468041 0.13015797109382293 -0.01818252382036098 0.004529189511503186 -0.08273465211491259
0.0165746548613784 -0.008436346940443007 0.07371861073237275 -0.017112634296286337 0.11338043876592577 0.11362873913382424 -0.06887222295232333 -0.05894961552800312
0.029979222951725643 0.10600958871415689 0.09934760772327765 -0.040777173124340954 0.06822504611160007 0.10262393164667065 0.056678838664344824 -0.054239685439161286
-0.0038061565317206096 0.027707616934461318 -0.030236796233953263 0.13128411878590288 0.07948051479912455 0.01816729078599309 -0.05209232223116202 -0.032635349983715395
-0.07849333314620381 0.07802173016571948 -0.057943738552765925 -0.1523741637386437 0.07992485346422504 0.062459756016522754 -0.02077122637601598 0.06973135072542858

net.4.weight f8 [64, 64]
00000000: cfeb 46da 9449 a73f 6336 c67f e0e5 a43f
00000010: abf8 6b77 0347 b3bf 8b1b 149c de28 a9bf
00000020: ca9d 72b4 4b47 bf3f dd43 6ef7 367d ad3f
00000030: e76a c277 f0f6 b63f f4af f103 af34 a73f
00000040: 4c3e 2352 2b39 99bf f088 a478 5867 9b3f
00000050: e6cd 6b33 f388 c6bf 1b4b 0218 6633 a0bf
00000060: 8fb8 31b4 1af2 a6bf 25b5 48b0 1db2 a83f
00000070: 57ba 367c 8608 ba3f d101 1c9a fb0c b23f
00000080: 9c26 c10b 43d4 b9bf e316 be65 1521 bcbf
00000090: 0ee5 e638 374f c3bf 559d 6275 a2d5 bcbf
000000a0: a0cc fbb0 6a83 c43f dca2 3c24 dda3 b1bf
000000b0: dd22 e15c aaa7 b2bf a18b f552 e804 b33f
000000c0: 8602 1786 14cd b53f 0c10 740d d62c a3bf
000000d0: 394f fe2a 0368 76bf fa7a e24b 8be4 9abf
000000e0: d1c9 1a99 344a cabf 7dab 789c 3a7e 87bf
000000f0: 4d4f 9793 146a 843f 1543 dc53 7bf2 643f
00000100: caa3 b71c db2d a5bf 7d59 97eb 45bb ae3f
00000110: 2728 b793 a63f ca3f 806a eef3 ec01 c43f
00000120: 0656 2fe5 963b 81bf 1949 86d9 306d bb3f
00000130: 3eec 2366 a681 6e3f 8d57 aec2 d550 c4bf
00000140: 1195 17cd 196d a73f 28eb f85e 17b9 bcbf
00000150: 92ed f6ef c249 b1bf 5597 fd27 9e6b 7e3f
00000160: fcd6 d05c ebfd b5bf 8978 a7a1 fa03 a3bf
00000170: fd37 dd23 51ee bf3f 215e cc7e f83c a8bf
00000180: f4d3 f78c 6e64 c63f 5b2d aa80 b06d aabf
00000190: 2e14 c4b0 4bed b4bf 8f25 3e87 adf8 b93f
000001a0: 9158 fa9c 6fbe 9ebf 2645 1b32 b238 b3bf
000001b0: 6fd9 eebe bc50 a33f d4ad fe37 e26d c4bf
000001c0: 1a12 182f 6d1d b53f 062d fe30 5209 82bf
000001d0: b8d4 d4d0 92e8 9e3f f6cb f734 c95e c4bf
000001e0: 9b29 49a3 d012 c3bf c00c c051 8235 91bf
000001f0: 28f4 92d7 125e bf3f d489 9cc6 e06e 923f
00000200: 87b5 37a5 79e9 a23f eeb9 9278 0821 a33f
00000210: 4f9c c5f4 9523 c53f e7ff 7e69 519d d03f
00000220: 4833 8d73 d505 bf3f 51d5 a41d ca4d a0bf
00000230: ff91 171c 54a3 b1bf d36e 1085 2fbd 9ebf
00000240: 27d4 e829 8161 ad3f 2afc 2710 594f b9bf
00000250: fb68 d732 ef65 c5bf ff90 6ca5 b395 c13f
00000260: 7f46 de09 ab95 a5bf 51ae 7a71 7b95 a53f
00000270: 0d0b bc5c be51 b93f b51e af99 83e7 8abf
00000280: c7ae 12f7 e707 a9bf 273f 7677 e11f bcbf
00000290: 845a 43ce d970 bb3f 02f6 a27d 8224 b2bf
000002a0: 1dd1 0c10 c4ed b73f 2627 9e09 ec90 b3bf
000002b0: 0519 abf7 2dfc b63f 3dbd 1fd8 1897 b6bf
000002c0: f23c 454b d790 87bf 6d13 1c23 15ef a1bf
000002d0: 0d66 9ecf 88da a5bf 21dd 7f58 916c 8dbf
000002e0: 0f13 fa00 bc34 a0bf f24d 6fbc 77f8 c13f
000002f0: fe53 d6ca af81 b8bf 41b1 cfe0 2423 c1bf
00000300: ba37 4d84 2ac7 b4bf 1e28 21a6 4c34 c8bf
00000310: bbae bc51 edc2 a03f 04ef ee23 e8ee 9f3f
00000320: 3d05 4caa f502 b4bf 6aaf ac1f 477d 8cbf
00000330: e695 1e01 35ad a1bf da73 eb6d ff19 b5bf
00000340: 00f9 4de9 3c34 733f 2565 b40d a983 bf3f
00000350: 9229 03dc e1fe c13f fb8b 1730 7cd4 b9bf
00000360: c73d 4f24 9fb9 b9bf 7c6c 2e1a 168d a03f
00000370: 5880 9c8a 62cd c23f eb13 5c95 82b2 b93f
00000380: 3e37 4d46 c180 a7bf b661 71f9 d81b b2bf
00000390: be15 c2fc 6880 a8bf 989f d6da 6dd9 9cbf
000003a0: 23ba 1c85 9376 b9bf b450 08e6 c1f7 b13f
000003b0: a3fc 2313 93d3 903f 7df6 3b9e 10fa bbbf
000003c0: c13d a075 2fe5 9dbf 4061 e6f1 f57b b73f
000003d0: e95e 7d8b 33ef abbf a476 8315 9b55 b33f
000003e0: e901 6b85 5473 c13f ddd4 78c3 7b2a c1bf
000003f0: fe03 0505 abd7 c83f 9ed2 19c0 06cc afbf
00000400: 4e6e 422b 8d19 c63f 6c20 647c 75af b5bf
00000410: 0c39 8dc0 f033 8bbf 0951 65fb 48fe 9f3f
00000420: 2677 f3bd 285a 81bf c8e3 4919 ee38 a83f
00000430: 9f4a 7e07 dbb7 bb3f 4af3 9c20 21d4 a03f
00000440: 55dc 69f9 c704 9fbf 5fde 3f01 ef2d 72bf
00000450: ecd0 86d1 724f c2bf 56c5 a1df 5fea a33f
00000460: a9de 8a55 d8a8 bc3f f8e0 afef bece 9c3f
00000470: 5526 7c1e 8c71 88bf 49e2 bac4 2d8c 8bbf
00000480: c3a2 090a 703e a9bf 048a 62d9 a224 a83f
00000490: 57c4 6d0c 2136 883f 388a 7444 2708 bdbf
000004a0: 40b6 1cb4 0d02 ae3f ccd9 2193 7d0c ac3f
000004b0: 39e7 93bd f1c1 b03f f75b 9c10 d75a c1bf
000004c0: 3d25 c65d adab c83f 5eff f996 80e9 bdbf
000004d0: eecb a6fa 9a98 a53f a6bd 688e 3d89 ac3f
000004e0: 449c 23db 2cb8 bebf 6e26 0c47 c9a7 a43f
000004f0: 392a 0e2d 5dd7 b03f c7bb deea 33b7 9b3f
00000500: a2ce 40cc 8e5e cc3f 0e06 e1e4 883f b2bf
00000510: 9429 779f 6280 a23f 6b9a 3dea adff b23f
00000520: 4c93 ca47 636a c2bf ba99 da49 c48b b03f
00000530: 375b 9fb1 0fff b1bf 1394 332a bb4e b1bf
00000540: 87f5 ccfe 1aa2 bdbf d29a 8bce 35bb a0bf
00000550: 291d b486 2db9 953f b4c9 5da3 fa5d c3bf
00000560: 7934 874e 7ce3 b33f 26b6 81f7 6664 4fbf
00000570: bfdc dcce 4e8f bbbf 5eb2 aa25 c0e1 943f
00000580: a053 3d63 f7b5 c03f def3 5eec ceef b03f
00000590: dda8 3d5c 9634 a33f b158 1b17 7bb0 7b3f
000005a0: f2d3 6e65 92e4 a93f 9c6d 8f4a bf83 a5bf
000005b0: c40d e312 bcec 7e3f 7a51 49b5 f5c1 813f
000005c0: 3864 fbee a36d b8bf bac8 46fa bc12 753f
000005d0: 1dfe 4f9a eb75 5b3f aa84 0e48 b51e a5bf
000005e0: 01e2 c417 b8e9 b53f ccbc 38b8 46da c03f
000005f0: 6e96 e787 0c4d c23f 8573 e630 39b5 b0bf
00000600: fd86 e5fd e104 b9bf c6a6 6f86 4bb1 bf3f
00000610: d19f e593 5b0c b23f d88c e10a a867 ca3f
00000620: 8039 4dde d38d b7bf e890 8af6 a6ab aa3f
00000630: 43e5 b849 c1a4 c3bf 2b9c 6ce9 c951 a5bf
00000640: 9179 3506 dc39 b73f 63c3 6d6a d84a b83f
00000650: ffb2 fffd 169d ba3f 00b0 89e1 b36d 9cbf
00000660: 3b5f be09 1ed3 bf3f 3e13 eb96 3aef 893f
00000670: 2b9f d3aa 283c 99bf a96e 7ca1 c061 c3bf
00000680: 575b a7b3 33cc bb3f 9ead 5be4 b63d b53f
00000690: 9eb1 4db1 65b5 c3bf ded3 3c47 4002 7dbf
000006a0: 087d a745 bcdb b53f 4da7 115e df23 be3f
000006b0: 1a69 05c0 99ff b5bf ca10 8cf3 95f1 7fbf
000006c0: 3159 cd2a 9b9f b93f 9c4b 9881 2b6a b03f
000006d0: ed5d 7255 e479 c03f 340b e2cd 23f6 a3bf
000006e0: 9493 7ad3 fdd3 95bf 338d 6776 046a bdbf
000006f0: d6c5 093f c2c9 913f 472b 244b 1c9e c7bf
00000700: c91b fc24 6098 75bf b3f1 abb6 c87c 9bbf
00000710: c33f 68e5 1e40 773f 6ec8 964e 91d8 c3bf
00000720: 3c82 5e6b 1ae4 a7bf 5dc0 9a4c ba57 803f
00000730: 7202 547d 000d a83f b0e5 8102 0952 a93f
00000740: 9692 0c3f 3a49 943f cfae 9cbf c817 b23f
00000750: 9880 416a fd06 833f 35c1 78ae dc4f a03f
00000760: c00c 0904 cfb4 babf b3f5 bf8e 2254 b5bf
00000770: fa48 891b e470 afbf 41f4 bcee 54f9 babf
00000780: 50a1 5cd8 8517 b1bf 0f88 7976 c586 9f3f
00000790: 02e3 87bd 1566 c33f 9e8f 6f37 b38b b0bf
000007a0: a489 4580 d3a9 c0bf c7e4 7006 b2e3 c13f
000007b0: 0236 66ed 906b a9bf 618e 7772 62af 98bf
000007c0: 96e5 8e30 567d 8f3f a2a2 da77 ec79 b23f
000007d0: 74d2 8ee5 6ad7 9cbf 6f93 6db2 7515 c83f
000007e0: 6c6c ac9a d7ce be3f 0088 c8e6 6402 abbf
000007f0: 2305 b2d1 abbe ba3f a913 04a5 0ffb c23f
0.04548325695528598 0.04081632194275355 -0.0753023306424178 -0.049139935066754147 0.12218163638555449 0.057595937446542435 0.08970549510778945 0.04532381938119548
-0.024632145775113565 0.02676141964287465 -0.17605438242718136 -0.03164214175298793 -0.04481585931431297 0.04823391701607197 0.10169258625567444 0.07051060211598005
-0.10089510952925668 -0.1098798154253831 -0.15085497167982748 -0.11263480535364086 0.16026052133347424 -0.06890661368073431 -0.0728708721882287 0.07429363274927293
0.0851605250709416 -0.03745144762254435 -0.005470287680413404 -0.02626245165503869 -0.20538957095921132 -0.011471231365325124 0.00996795726215507 0.0025570305578032173
-0.04136547780564788 0.06002253056401494 0.20506746494931002 0.156308764559828 -0.008414439076584134 0.10713486967714338 0.00372393131067164 -0.1587168884840903
0.0457542479378309 -0.11219926899586297 -0.06753176077375247 0.007426851079662307 -0.08590575233469261 -0.03713973258321441 0.12473017812337157 -0.047340169409093365
0.1749399364777272 -0.051618114191195295 -0.08174584451269659 0.10145077277970514 -0.03002333064667845 -0.07508386348060422 0.03772535162663614 -0.1596033833896927
0.08248026275402545 -0.008806841011184573 0.030184072490744923 -0.15914263807607626 -0.14901168797434824 -0.01680568336452093 0.12252919924772299 0.018001091120035742
0.036937524240651824 0.03736139747467236 0.16514849139932372 0.2596019296870495 0.12118276663859462 -0.03184348689903039 -0.06889844594804372 -0.030018560883134548
0.0573845256480257 -0.09886700291097897 -0.16717329008572065 0.1373810346350481 -0.04215750213110158 0.04215608368153013 0.0989035583880133 -0.013136890533032778
-0.04888844386127072 -0.1098614613204033 0.10719071660728657 -0.0708695942621134 0.09347176925513563 -0.07643008456048203 0.08978545471754636 -0.08824305798019778
-0.01150673101861208 -0.03502718022904259 -0.042682910293660205 -0.014367232812203813 -0.03165233146595458 0.14039513302724022 -0.09572886182861848 -0.13388501145471746
-0.0811640332223921 -0.18909605132859125 0.03273717520491234 0.031184794610211078 -0.0781701603664446 -0.013910823492174724 -0.03452458990731681 -0.08242794450366323
0.004688489851899513 0.12310272774302129 0.14059088938513448 -0.10089851545448873 -0.10048861156905452 0.03232640332790823 0.1468928505719329 0.10038009783245598
-0.04590419753240703 -0.0707374199859093 -0.04785469136644903 -0.028173176271280548 -0.09946557998475973 0.07018672815348986 0.016432092707870393 -0.109284437781719
-0.0291945853751352 0.09173524051437187 -0.05455933645015227 0.0755249907992615 0.13633209719229392 -0.13410899204760698 0.19408166642281793 -0.06210347266179393
0.17265476810722408 -0.08470854079144069 -0.013282662273607325 0.03124345812223431 -0.008472746178479772 0.047309341990462495 0.10827416356031926 0.03286841891392685
-0.030291676137917573 -0.0044383369568020406 -0.1430495760993219 0.03889751057512096 0.11195137108267751 0.028132422808966745 -0.011935324364020486 -0.013450963560317624
-0.04930448648957999 0.04715451148628705 0.011821993057056597 -0.11340566083212245 0.058609417187068136 0.05478279515311932 0.06545935514796221 -0.1355847197634998
0.1927391727333915 -0.11684421239806173 0.042179911706078474 0.05573456157105321 -0.11999779081416856 0.04034260742453176 0.0657861933706635 0.02706605073006665
0.22163567517565236 -0.07128196323267152 0.03613575169181896 0.07421385735288204 -0.1438716984313494 0.06463267138551645 -0.07029817663656678 -0.06760759144124533
-0.11575478287428186 -0.03267830034547149 0.02121420988717407 -0.15130551316140173 0.07768990437689806 -0.000958013798493422 -0.10765545416221566 0.020392420100210244
0.13055317254716403 0.06615918417715203 0.03751058460223231 0.006760102101642727 0.05057198990053981 -0.04202077660712719 0.007549986518088973 0.008670730204507694
-0.0954229792072433 0.00514482325927384 0.0016760636146954174 -0.041249909444794966 0.08559752064036986 0.1316612624664003 0.14297634731262882 -0.06526524967052978
-0.09773075531623117 0.12379905731327331 0.07050106392637125 0.20628834277440578 -0.09200786759649837 0.052090852351541816 -0.15346542453498033 -0.041639623397991286
0.09072661544403206 0.09489204977377379 0.10395950032370747 -0.027762232437837042 0.12431514490014887 0.01266332409921633 -0.024643550325804824 -0.15142066845952698
0.10858462463452888 0.0829729373469292 -0.1539733043422417 -0.007082224928855544 0.0853841466955495 0.1177348713551087 -0.08593140542999259 -0.007798753497585584
0.100091646146528 0.06412002481401519 0.12871984646038417 -0.038987273103904846 -0.021316495926516035 -0.11489894762739965 0.017371211144966946 -0.1845126501942451
-0.005272269787162062 -0.026843200826066126 0.005676384628273415 -0.15504661881783782 -0.04666216431292411 0.00797982736853003 0.0469741967190246 0.04945400386436505
0.019810590837681184 0.07067541769054773 0.009290675931140677 0.03185929899007293 -0.10432142113227183 -0.08331504807571015 -0.0614081653226481 -0.10536700085226959
-0.06676517994185827 0.030787549358485985 0.15155288462099042 -0.06463165381825184 -0.13018268359435325 0.13976121248723514 -0.04964878938617902 -0.02410653899813864
0.015375779492262247 0.07217290807842372 -0.028165502797224254 0.188154899714529 0.12034366155823911 -0.052752640888016344 0.10447191113964442 0.14828677709024632

net.4.bias f8 [64]
00000000: 071c 1bd0 33b5 b33f 5450 f4dc 665e ac3f
00000010: 5baa c49a d1ad 923f 9c7e 4f45 4729 b6bf
00000020: 99b0 6eda 458f 99bf b14a 84b9 3ebe bb3f
00000030: 5b18 abef 914a ae3f 4deb 7d91 4745 b03f
00000040: 3f3c e3ab 044e b9bf 5540 1a9e 9b1b b93f
00000050: 5281 5fd3 8845 bcbf 9cf8 1139 f3b3 b9bf
00000060: 3c38 3350 f6bf 813f 3a48 96ab 62af af3f
00000070: 1cf5 18cf f02e b03f dfc2 690b f23e c4bf
00000080: 14aa e5c4 bb20 ab3f c22d 2c90 717c a8bf
00000090: 2b51 84bb 3f1a 8ebf 07fc 319f b5de b6bf
000000a0: 2257 3ab3 a66d b6bf ad60 6b49 c374 bdbf
000000b0: 4d21 1b3f 61b0 84bf 967b db91 eff1 b93f
000000c0: cfbf b6b4 2229 90bf e9dc 564f 48e1 b9bf
000000d0: 821a e0b8 02aa b4bf 8abc a16e 31de af3f
000000e0: 356c 6120 b839 ba3f 0034 fb99 f502 b33f
000000f0: 0b2a e8d7 884f a7bf dbdc 9db2 8f1e a6bf
00000100: 70b4 4c53 a505 98bf 31b2 24f6 f3cb c6bf
00000110: 469d a32d 368e bebf 4a8e 287f abc9 c4bf
00000120: 5c0f 9a11 8347 a1bf 74a1 fe41 e00e af3f
00000130: ab69 bf85 84f8 bcbf 67bf d36a 64f6 b43f
00000140: a82b c71b 9113 9bbf 2479 9df2 0dde 8abf
00000150: bb4d 953b ba6a a23f 575f 8c82 25ba 78bf
00000160: e7ce e6cb eb7c 8bbf d9d6 9ee5 876b a43f
00000170: f2bc 2f29 85c7 83bf e1ca d5f8 d482 a93f
00000180: 1229 a599 54e5 c0bf 498d 7fae 0580 8c3f
00000190: d439 14a9 82cd b6bf cf6a 43c4 ae2d c7bf
000001a0: c37a add7 1e8c c3bf 8a4a 4060 edf3 babf
000001b0: e72d 3317 32e5 c23f b3eb f0f9 66e7 c43f
000001c0: f7ec 38ee 5e7e a5bf 51e5 f2df 15df 793f
000001d0: d9c0 c297 7a12 64bf d15c 6dd7 0878 893f
000001e0: 0bfd 1a52 02ca 9abf 2409 c248 665b acbf
000001f0: 89c3 6a59 bf2f 933f cdbb f54c af53 b8bf
0.07698367911062586 0.05540772864529289 0.018241190978338966 -0.08656735841895585 -0.024960605103544784 0.10837165860383881 0.05916267443312569 0.06355712225005768
-0.0988467139861635 0.0980775128357448 -0.1104360118911292 -0.10040207045855926 0.008666920015823469 0.06188495964592318 0.063216257630263 -0.15817094380647398
0.05298411158112884 -0.04782442936820132 -0.014698503408489735 -0.08933577667811231 -0.08761064410859068 -0.11506290953127758 -0.010102042902318554 0.10134789763422555
-0.01578191974630255 -0.10109378754610855 -0.08071915639457397 0.062242073778969134 0.10244322577038718 0.07426390656765136 -0.04552867541868374 -0.04320191436175388
-0.023459037026601626 -0.17809915083616226 -0.11935747732387822 -0.16240447720439227 -0.033748718165070385 0.06066036992644089 -0.11316707864117485 0.08188464744648415
-0.026441829033312964 -0.013118847815061736 0.03597051598867603 -0.006036898158320834 -0.013421861801226466 0.039882895259706515 -0.009657898253833317 0.049826293349630076
-0.1319986105175493 0.013916057956470456 -0.08907333972840742 -0.18108162482425036 -0.15271363764892074 -0.10528453445321354 0.14761949665840676 0.16331183628230192
-0.041979757861975324 0.006316266487538983 -0.002450217665760684 0.012435978960338908 -0.026161228429143295 -0.05538482320936769 0.0187368295980295 -0.09502692822364552
