so3_experiments/results/sf2m/model.pt (torch, 79227 bytes, 8 tensors)

net.0.weight f8 [64, 10]
000000 32 3e 4a 5d a4 26 d3 bf 14 e0 0c df cf 1d a0 bf
       -0.2992335234675664 -0.03147744748861228
000010 0f 23 2f b4 b6 68 b6 3f d2 45 93 f6 c9 e2 be 3f
       0.08753530406023578 0.12064802427200697
000020 e4 4d 88 a8 c5 54 d4 3f 87 5d 12 90 6f e0 cf bf
       0.31767407854314755 -0.24903673681977187
000030 87 b2 f1 8a 95 94 b7 bf 4f a4 6b 6b 25 9f d4 bf
       -0.09211096422377284 -0.32221351137429094
000040 9a 29 59 b4 42 89 d8 bf 4a 63 45 48 d8 11 c7 3f
       -0.38337771999490544 0.18023208168849641
000050 63 d7 89 5a e4 df d1 3f a1 8b cd 2d 1c e8 d1 3f
       0.2792902836002808 0.2797918746275006
000060 4d 23 c8 91 9f 0e d2 bf f9 0f 28 65 d4 b3 d1 bf
       -0.2821425365114479 -0.2766009319168457
000070 0b 2e e7 2b 88 5a ad 3f f3 c2 74 5a 7c 1c c3 bf
       0.05733132873464449 -0.14930681626130812
000080 9c cb ff 7c 49 39 98 bf 2c 55 75 e6 3f 29 d4 bf
       -0.023656032804818858 -0.31501767640777945
000090 7f b2 e7 28 19 8d cf bf d9 64 a1 aa e6 8c b8 3f
       -0.2464934777957701 0.09589997926504469
0000a0 80 61 30 90 46 aa ba bf 6d db 63 27 f4 76 c8 bf
       -0.1041607000373741 -0.19113017962782966
0000b0 c8 d6 7c d4 8a 5f d6 bf b2 1f a1 d1 3d 25 c7 bf
       -0.34958143950221343 -0.18082401977357915
0000c0 3c 43 4d ca 90 aa bb 3f 44 94 b6 ff df a3 d3 bf
       0.10807137431153263 -0.3068771359633653
0000d0 9b 28 0e 18 77 8c d1 bf 0a e3 96 a6 d0 14 d7 3f
       -0.2741983160891636 0.36064544933792375
0000e0 ed 0d 97 e5 39 1f b8 3f f7 93 cc a4 3d ff c1 bf
       0.09422647338129027 -0.1406018309291139
0000f0 68 fc a8 00 a6 04 c8 3f 2c 49 c9 5d 62 b5 d3 bf
       0.1876418593619491 -0.30794581564727497
000100 c3 6a c0 b9 db 51 d3 bf 91 6a 0d 06 67 95 c8 3f
       -0.30187123431975865 0.19205940051582052
000110 e4 0b 47 a3 76 49 53 3f 51 31 e8 6a 69 2f cb 3f
       0.001177183015088395 0.21238439292973024
000120 c7 28 82 72 4a 52 d0 bf af 89 1e 3e 2e 47 84 3f
       -0.25502263243164375 0.009901391287546383
000130 5d cc cf d6 47 8f 74 3f 57 b7 77 fb f7 b3 cb bf
       0.005019455548779109 -0.2164297082776396
000140 08 ea f1 76 01 9c b0 bf e3 a0 62 a8 5c bd cc bf
       -0.0648804583924304 -0.22452886793076407
000150 86 88 c3 5a b2 b6 b6 3f b6 ff 20 05 0a e0 d1 bf
       0.08872523036873944 -0.2792992639624531
000160 4b 7d 12 d3 be 07 d0 bf bc d1 79 a4 cf 6b d0 3f
       -0.2504727422001067 0.2565802675447022
000170 13 18 7e 31 67 20 c8 bf 64 2e 94 23 e0 59 cd bf
       -0.18848886410359053 -0.2293052839016695
000180 f4 7a 23 0b 8a 97 cc 3f b8 4c d9 a9 60 1d c5 bf
       0.22337461036564543 -0.16495903294944525
000190 22 9e 95 75 46 16 cc bf 73 cb 47 2e aa 79 d5 3f
       -0.2194297861235422 0.3355508281667234
0001a0 0c 73 4c b8 7c a2 b6 bf 1e a8 20 e5 56 94 d1 3f
       -0.0884168577144459 0.27467892051447673
0001b0 f0 e0 86 28 70 f9 9f bf d5 48 ad bc 29 33 80 bf
       -0.03122496840816863 -0.007910085745298204
0001c0 1f 7b 71 18 de 9f c2 3f fb 51 c8 62 76 c9 b6 bf
       0.1455037707664468 -0.08901157294923927
0001d0 ba 2c fc cb e1 05 9a 3f bb 76 71 7e 02 ba d0 3f
       0.025413063121089798 0.26135313365908147
0001e0 99 1a 01 ab 42 6b d5 3f b0 59 67 75 87 03 7e 3f
       0.3346716566051469 0.00732758439558838
0001f0 63 5e 0d 86 70 62 d6 3f 5d dc 34 34 a2 f2 c6 3f
       0.3497582730392194 0.1792795901216974
000200 85 4f 0d 21 46 17 d1 3f aa 09 68 fa cb d1 96 3f
       0.26704552867635584 0.02228468623980865
000210 e6 26 f1 d2 ea 64 c6 bf dd 3c 35 00 9c e5 c7 3f
       -0.17495475101377805 0.18669462213663382
000220 52 c0 77 e9 21 9a d4 3f 09 83 76 86 ec 05 8e 3f
       0.32190749930942275 0.014659736493571456
000230 a3 c7 5e c1 b4 a9 b1 3f ea a4 a0 46 be e1 a3 bf
       0.06899575921013805 -0.03883165943290996
000240 9e ea 55 55 a6 3d d1 3f f3 72 af 6a 39 27 b7 bf
       0.269387801490362 -0.09044226507780788
000250 5d c2 7f 76 28 f8 c1 3f 80 aa fb 07 8c 5e c9 3f
       0.14038568292700662 0.19819784536169394
000260 6e 32 22 88 f3 b9 d0 bf ee e2 e4 c7 2f bf cf bf
       -0.26134956640524976 -0.24802205334142208
000270 0f 25 0c 8a 2d 6f d4 3f 6d e5 cc a5 52 37 b8 bf
       0.31928575974650725 -0.09459415958271729
000280 5f cc 5d 84 5d 76 bd 3f 62 00 54 92 26 8d b8 bf
       0.11508736116029315 -0.09590378830398685
000290 16 ed c9 49 92 81 cd 3f 2f a9 4c 3f a4 22 d1 bf
       0.23051670649497485 -0.2677393549116855
0002a0 c0 b1 08 62 c6 34 cd 3f c0 cb 5d bc 35 8f b4 bf
       0.22817306315245212 -0.08031020973957848
0002b0 e7 a0 e4 e2 23 29 c8 3f 75 5a 9b 38 b3 31 bf bf
       0.18875549868358307 -0.12185211307528639
0002c0 f4 bf e2 2e 35 2b c4 3f 74 54 06 3e 16 24 c7 bf
       0.15756859578459592 -0.18078878429938394
0002d0 e7 a4 ae a5 cf c8 d5 bf 5e 33 7a 08 31 34 97 bf
       -0.34038153819945055 -0.022660032408157497
0002e0 aa 14 89 c2 47 75 c1 bf 38 af d7 25 db ae c6 bf
       -0.13639161108782122 -0.17721118304995698
0002f0 78 f0 86 13 5a 32 ca 3f 67 5c 44 5e fa 75 d1 bf
       0.20466161683532724 -0.2728258057190431
000300 52 fd 4c b1 5e a6 b1 bf c8 c9 ff 18 6d 8b b8 3f
       -0.06894485310202939 0.09587747440654149
000310 88 57 0a f8 ba e5 91 3f 7b 40 9a f9 1e 3b d1 3f
       0.017477914227661567 0.2692334592366092
000320 41 00 32 dd 04 6d ca bf 0e 6d a2 8a 3a da b0 bf
       -0.20645199585487897 -0.06582990536337638
000330 1f f3 1a 92 09 57 ca bf 26 c1 52 38 7b f8 c8 3f
       -0.2057811702160501 0.19508304834517637
000340 3a ad fc 17 34 58 d8 bf 23 23 fb 7e d8 94 c2 bf
       -0.38038351385576485 -0.14516740989918117
000350 33 e7 f6 5b 19 41 d3 3f dd cd d4 03 8f d1 b9 bf
       0.30084833126931015 -0.10085386127030156
000360 94 3d c6 17 68 01 d6 3f 2d 1d c2 e9 9a 60 a8 3f
       0.34383585283009066 0.0476120386456905
000370 e2 f0 38 8d ed c6 c3 bf 43 fa be f9 65 7d b3 bf
       -0.15450829883219003 -0.07613217685045819
000380 5f a5 6d b9 6b 42 a4 3f 15 35 ee 00 37 06 c9 3f
       0.03956925047425374 0.19550216241297194
000390 4b fc 09 51 42 40 bf 3f 8a d3 97 a6 3c 62 d2 3f
       0.12207426527491909 0.28724590557913443
0003a0 33 a9 cf 55 43 4d d0 bf b9 89 83 40 50 d6 bb 3f
       -0.2547157609939347 0.10873891425175132
0003b0 2a 89 de 3f 0e cd d3 bf d8 aa cf 63 7a 4e b6 bf
       -0.30939060437426014 -0.08713498055264368
0003c0 7b f3 f4 e5 00 2c cc 3f 88 d8 1e b9 f1 70 b1 3f
       0.22009288051949824 0.06812964219611406
0003d0 13 c3 db 52 be fa bb bf 59 15 d8 13 69 09 b7 bf
       -0.10929479144011749 -0.08998734220957284
0003e0 f4 5c 09 52 e4 58 a2 bf 89 e0 be 2b 62 7f d1 3f
       -0.03583444119856863 0.27339987060577947
0003f0 69 25 17 dd 35 be cc 3f ca a7 62 56 60 f1 d0 3f
       0.22455476088934326 0.2647324412924915
000400 18 fc e5 61 23 b9 c6 bf 18 50 3a 69 a2 87 d5 3f
       -0.17752496986574395 0.33640346790457576
000410 86 18 c5 cc 92 a4 cb bf a0 61 ab a9 b6 a0 d7 3f
       -0.2159598827221922 0.3691841751983933
000420 25 d4 2b 0a 44 b4 9a bf 57 3d c8 33 54 fe c5 3f
       -0.02607828437881578 0.17182400253703164
000430 05 6f 8c 30 f3 5f 71 bf 8d 0e f9 c9 f5 40 b8 bf
       -0.004241895637075781 -0.09474121266344522
000440 eb e5 ca 2e 72 49 b8 3f 41 40 05 e6 18 c8 a2 3f
       0.09487069742581127 0.0366828709398992
000450 3e 08 b6 8e 24 40 a5 bf 1d 18 00 16 49 60 a1 3f
       -0.041504995747360315 0.033937725005714216
000460 57 9d aa 3c 74 11 c5 bf 52 b8 8f b8 a4 88 d3 bf
       -0.1645951553557363 -0.3052150537831767
000470 7a 9f 5d df 95 83 c7 3f 3a e5 dd c9 dc b8 d1 bf
       0.1837031689312843 -0.27690810884049066
000480 06 c2 75 86 f5 ec 97 3f 77 49 18 85 dc 3c d2 3f
       0.023364864665781603 0.28496468541666026
000490 60 0c 79 06 8e f1 d1 3f 2d 5a 5b fc f8 a7 b9 bf
       0.28036833412278916 -0.10021930848174838
0004a0 a3 e7 a5 c8 a0 70 a8 3f 6f 7f 26 55 75 6d cf bf
       0.04773428391759118 -0.24552790315373893
0004b0 0e ae 7a 5d 14 89 ca bf c7 ac d9 89 8f 8a ca bf
       -0.20730833591856918 -0.20735353690120048
0004c0 0c 06 b5 ea 92 0f d5 3f a7 33 a8 88 03 03 d2 bf
       0.3290755550443414 -0.2814339479962719
0004d0 0b 87 dd c0 09 68 b3 bf 73 09 7b 27 4b 80 c4 3f
       -0.07580624540926466 0.16016520908130935
0004e0 b2 05 69 9a 47 39 d5 3f 4e fa d4 ab d7 69 b3 bf
       0.3316210754311114 -0.07583377785793141
0004f0 52 ad 6d d9 59 3b ca bf 51 f9 d9 ef 14 d7 6e 3f
       -0.20493624798414573 0.003764668362065717
000500 0d 1a 08 7f 20 d2 b6 bf 5c 24 89 36 4c e6 bc bf
       -0.08914378262861807 -0.11288906413496264
000510 b9 f5 0b 2b 92 64 d4 3f 5e 50 54 ef 4a e7 b1 3f
       0.31863836482792923 0.06993549674035779
000520 d9 e9 3a 58 8d 73 c5 bf 05 22 fd 32 5c 2a b3 bf
       -0.16758887107955792 -0.07486511463969954
000530 a0 c9 19 89 16 5e d2 bf 6f ae 47 21 8f d3 bd 3f
       -0.2869926775812477 0.11650938570499546
000540 99 0a 93 c5 7a 04 c9 bf 8e c5 19 aa 84 13 ca 3f
       -0.19544920584856554 0.203720648819893
000550 31 69 5f 53 ba 14 ad bf 52 9c ba 78 05 52 b9 bf
       -0.05679876582844868 -0.09890779683574749
000560 45 49 c6 29 2e f2 a2 3f 34 55 f0 cf d2 ab cf bf
       0.03700393924659066 -0.24743113663923
000570 b1 7e 10 0b 29 20 bb 3f e1 13 9e de 33 38 ba 3f
       0.10595947761657488 0.10242008385655722
000580 f6 ff ca be a0 d4 c7 bf fa ed 1f 96 29 2d b2 3f
       -0.18617638889372728 0.07100162425188464
000590 54 a2 86 cb 75 a7 d0 bf 2c 0f 97 75 7b 82 d8 3f
       -0.2602209556157835 0.3829640053120211
0005a0 75 c6 5d 5d 8c 5b bc bf c2 eb 02 a2 69 b0 d4 bf
       -0.11077191619349398 -0.32326737233568903
0005b0 a9 98 ca a3 43 17 c1 3f f7 71 e9 31 83 d2 d1 3f
       0.1335224675905853 0.27847366213043706
0005c0 9c 9d 86 8a 92 6c b8 3f 6a 92 8d 65 5c a9 cc 3f
       0.09540668374994826 0.22391848524707153
0005d0 82 36 7c 5f c5 ba 9b 3f 8f 9f 78 3f 7e 08 c0 3f
       0.027079662278131973 0.12525919055155696
0005e0 2b 19 50 0d 98 1e c7 bf c3 72 c5 38 bc 8f b9 3f
       -0.18062115335505644 0.09984947572724949
0005f0 6c d8 e0 81 6a 7e d6 3f e8 f5 c8 03 ca 5e cb 3f
       0.3514658230154797 0.21383023438276827
000600 94 d8 68 54 54 48 cb bf 7c c7 bf 0f 60 56 c7 bf
       -0.21314481851158418 -0.18232346314431058
000610 1b bb 1a 1c ee d9 b8 bf d6 2c 8b a8 9c c2 c8 bf
       -0.09707534967558866 -0.1934390852896743
000620 73 d6 34 67 7b 1b 27 3f b1 2b d0 3c e6 17 d0 bf
       0.00017629510294063822 -0.2514587015036183
000630 01 54 17 d0 41 bc bc 3f 69 37 b9 eb 5d 6b d1 3f
       0.1122475750956511 0.272178154181225
000640 70 98 80 7a 85 3e 8e 3f 7a 96 bc 8b 56 2e d3 3f
       0.014767687607740693 0.299703251325219
000650 4d 7f e5 9d 57 25 b7 3f 09 07 33 d8 c8 98 a3 3f
       0.09041354756254556 0.038275028602141666
000660 e0 2a 71 a4 f6 f0 d9 3f 8b 5d 6e f1 78 b1 d2 3f
       0.4053322416190621 0.29208205773598966
000670 b2 9c 3e 32 7f 30 cf 3f 66 2c ad 3a f9 8e d0 3f
       0.24366750672672804 0.2587264130604069
000680 be 3c 90 fa 07 ff ad bf 00 be 66 ef 8b 23 98 bf
       -0.05858635839114744 -0.023573099600694647
000690 cb c0 58 e7 9a 4c bf bf b6 12 80 2a 1e 9c c5 bf
       -0.12226265094864457 -0.16882683825692418
0006a0 b8 aa 7d 85 86 c0 d4 3f 5c 13 e9 8d 5c 95 b3 3f
       0.32425082241267544 0.07649782623873363
0006b0 70 70 2c f4 15 25 d0 3f 7d 71 44 45 8c 88 d5 bf
       0.25226353497578824 -0.3364592243613272
0006c0 b1 f0 89 28 2e cb c4 bf 5a a1 b6 7a 03 03 c0 bf
       -0.1624505708640576 -0.12509196750512325
0006d0 30 7e c7 bb f0 f6 b2 bf 04 84 24 b7 f2 ad d2 3f
       -0.07408051094488921 0.291866949892267
0006e0 21 f9 90 23 96 4f c1 bf f8 6c bf 10 60 3c cb 3f
       -0.13524128662715731 0.21278000657807872
0006f0 e9 f6 cc 26 47 00 c9 3f 4a 62 a6 e1 12 14 b5 bf
       0.19532098192751526 -0.08233755120307609
000700 55 18 a2 f7 0e 1c c5 3f 08 cc 88 07 0f 0b d0 3f
       0.16491877643074085 0.2506749700143591
000710 f7 e0 33 ab 6f b7 c5 3f cd a2 d6 88 e5 5d cd bf
       0.1696605287504622 -0.2294279974132877
000720 5d 33 a9 b2 65 7b d2 bf 8a 5c b9 16 e6 b2 c2 3f
       -0.2887815708862059 0.14608455762456557
000730 b7 84 06 aa 37 99 8b bf b7 34 64 9d 3d 17 ca 3f
       -0.01347583282114538 0.2038342493546332
000740 4d 72 71 b2 e8 d4 b4 bf 11 c5 f3 c5 4d c1 cf bf
       -0.08137373310587144 -0.24808666387210868
000750 9c b4 9c 9a fd f9 b0 bf bf 70 df c1 78 8f c4 3f
       -0.06631455445013262 0.1606284090656853
000760 39 c6 12 9e 2d e3 b8 bf 42 b9 12 8d 66 8a 9b 3f
       -0.09721646413051922 0.02689514385263548
000770 5e d2 06 6e 43 65 d0 bf cb 5b 9f b0 da ec bf 3f
       -0.2561806272963504 0.12470785915444009
000780 75 08 af f7 a6 11 d4 bf 5e 9f 86 fc 48 10 d6 3f
       -0.31357740581382326 0.344743963820738
000790 0c b1 dd ca 65 94 ce 3f 7b f5 ea 15 0c a5 ae bf
       0.23890373616757932 -0.0598529602770936
0007a0 8c a5 91 52 98 c5 cb bf 93 15 b2 ee 1a 80 b9 bf
       -0.21696762115179202 -0.09961098029642405
0007b0 24 9f ec 4c 09 43 d1 bf 05 cd 93 35 8c c7 ba bf
       -0.2697165728773021 -0.10460735614815427
0007c0 44 67 74 4a 1d 4d c6 3f 7c de 8d fa b2 05 af bf
       0.17422834525569375 -0.060590355954386305
0007d0 8f d7 37 ae ff 4e ce 3f 4b 03 4c aa 1d ba c3 3f
       0.2367858505892255 0.1541173059013324
0007e0 11 37 ab 77 56 99 b2 bf 35 e5 1d 3d ee 72 d3 3f
       -0.07265224858857901 0.30388980835376184
0007f0 75 8c dc 1a b5 06 97 3f e4 8f f5 ca 51 8b 81 bf
       0.02248652435731598 -0.008566512113880216

net.0.bias f8 [64]
000000 6f f5 ec 5e 30 ef b4 3f 76 11 d0 7b 02 0f d5 bf
       0.08177473371047993 -0.3290411194905326
000010 82 9d 6e cf f5 4b b5 bf 07 23 18 79 8b f5 d1 3f
       -0.0831903106142047 0.2806118662415859
000020 6e da e6 22 ab 1d b8 3f f1 9a 25 d3 2a 0b aa bf
       0.09420270540327078 -0.05086644961811782
000030 8e 3b 57 f3 4f 88 c0 3f e4 71 e5 9c ee 6a bc 3f
       0.12915992147324257 0.11100665407634086
000040 ed ab a6 87 37 ea c6 3f 01 eb 3c b0 93 da a3 3f
       0.17902273295962293 0.038776984466002425
000050 7c 3b 6e 30 c8 77 c2 bf f6 fb c5 ac 35 0e c7 3f
       -0.14428045620703844 0.1801211446399688
000060 9d c2 cd 12 bd 95 dc bf ed 5a 45 7d 13 69 d6 bf
       -0.4466393169050578 -0.3501633380268874
000070 ba 9a 0c 5a 17 fe 99 bf 32 f0 08 88 b1 d1 cb bf
       -0.0253833435737316 -0.21733683721856917
000080 bd 5d b5 6d 7c f3 d4 bf fe ed cf b1 d6 7c cd bf
       -0.3273612090465255 -0.23037227327573356
000090 b0 35 d5 2d d5 eb b9 3f 09 99 77 c8 2c a5 c5 3f
       0.10125477189031673 0.16910323894916982
0000a0 c5 dd b5 40 4f f2 cd 3f 0a 9a 2a 6c c4 37 b9 bf
       0.23395720157325975 -0.09850719109326903
0000b0 99 39 c7 a3 22 6c ac bf 3d 51 32 ae 13 9b d6 bf
       -0.055512506954630676 -0.3532151414049343
0000c0 7e 29 a3 f8 d3 18 bf 3f 5a f7 3f e5 d9 87 d4 3f
       0.12147259540794228 0.32079169643099237
0000d0 47 e1 c3 50 c2 d8 c8 bf bc e7 95 0a c1 4a a7 3f
       -0.19411496108637946 0.04549220327585554
0000e0 3d d6 79 e5 95 32 b6 bf fd 75 0a 9e d0 b3 ab bf
       -0.08670937397422392 -0.0541062539025283
0000f0 1f 70 6a e9 2d ab d4 bf 17 80 6d ec 61 57 bb bf
       -0.32294795794018855 -0.1068021013466026
000100 91 8a f8 c2 06 e5 c9 3f 5a 94 7c d4 6d 34 b9 3f
       0.202301831436746 0.09845625341093137
000110 59 33 f3 b9 f7 24 be bf 3b 61 33 ec dd 05 ba bf
       -0.11775158204836823 -0.10165202156656943
000120 0f 32 9d c4 e5 90 b8 3f 75 37 95 8f c7 5e c5 bf
       0.09596096086642823 -0.16695494185335816
000130 14 c5 e3 a2 9f 2d c7 bf 90 1a 5f f7 17 d3 ac bf
       -0.18107982114410304 -0.05629801649734134
000140 ea 22 98 17 9f 50 8e 3f 85 28 5c cf ac f7 c8 bf
       0.014802210719623916 -0.19505844235419914
000150 06 17 42 5d 3f 7b c0 bf bd bc dd e8 a0 19 a1 3f
       -0.1287612157213333 0.033398655344052376
000160 0e d7 d1 99 f5 81 d1 bf 6c e2 c7 24 ca 3a c9 3f
       -0.2735570909638775 0.19710661693513332
000170 2d 48 83 cf dc 58 c6 bf 39 f8 ce 27 f9 5a d9 bf
       -0.1745868695493881 -0.3961775673632278
000180 cc cd 81 12 7a 2b d1 bf 0a 0a e5 2a 01 eb d0 3f
       -0.26827861602143055 0.26434354008611705
000190 eb 2a 5e b0 b1 f6 b6 bf 44 82 69 d5 2c 58 cb bf
       -0.0897017531953385 -0.2136283914615139
0001a0 73 67 97 38 4a d0 cc 3f 4f cb 45 0d 34 f6 bc 3f
       0.2251065040898613 0.11313176464117912
0001b0 73 bb 6e c3 3b 62 b9 3f 54 f1 25 0a b9 f4 ca 3f
       0.09915517350485263 0.21059334750669712
0001c0 0a 23 db 05 de 5f 8d bf 47 df a6 2b a5 19 a2 bf
       -0.014343008569441835 -0.03535190732821874
0001d0 c1 52 00 f5 9a 83 c8 3f b7 cd 83 fc 5e 64 cb bf
       0.1915162750525692 -0.21400058107211148
0001e0 48 40 ef 5e e1 6b c2 bf 66 d7 56 ac 77 98 90 3f
       -0.14391724715688015 0.016206617254020193
0001f0 48 b2 bf 80 55 cf d7 bf e7 4f 91 2c b5 e8 78 3f
       -0.37202966282965066 0.006081302367494579

net.2.weight f8 [64, 64]
000000 3c 0a 38 bf af ea b4 3f ab b6 49 a1 82 40 c5 bf
       0.0817060319750817 -0.16603119731319302
000010 e5 42 91 d8 c5 1d b9 3f 98 1c 9a 8d 7d 2d be 3f
       0.09811054742136667 0.11788162905769395
000020 1c cf 12 c4 b3 6f b8 bf 1e aa e9 95 15 21 a7 3f
       -0.09545444046926516 0.045174288320442665
000030 59 42 40 38 b3 56 b7 bf f9 ce 47 3c 42 8d a8 bf
       -0.09116668818774921 -0.04795271859975787
000040 85 7c e7 72 5a 30 b7 bf 6c 42 e6 bb 0a 28 c2 bf
       -0.09058156304625882 -0.14184698271539575
000050 a8 df f9 51 9f 5d a8 3f f2 c8 1f f8 52 88 91 3f
       0.047589281803936345 0.01712159766606986
000060 49 52 bc 5a 8d 98 c7 bf d6 cc c6 f7 29 04 ab 3f
       -0.1843430226368972 0.052766143318331224
000070 d2 cd a6 48 f2 2b c5 bf 93 63 ad 35 05 e5 a3 3f
       -0.16540363833847366 0.038856661608128416
000080 ee 70 5d 11 28 cd 9f 3f 16 88 25 96 4b d6 c9 bf
       0.031056047496677168 -0.20185227233292896
000090 ce 31 56 c5 5b d9 b9 3f c7 79 cd b4 bf 8c 9b 3f
       0.10097287719526735 0.026904101763074253
0000a0 63 3f f4 cf 34 53 b1 3f 7e 34 1a 11 1c ec b8 bf
       0.06767587735180096 -0.097352747130758
0000b0 cf 13 57 fc 42 2b b8 bf 8b 85 9a 86 37 a5 c0 bf
       -0.09441012058876129 -0.13004201958123604
0000c0 23 d2 7e 6c 71 b8 a1 bf 49 09 ff e1 66 95 9f bf
       -0.03461031388670601 -0.030843360465732137
0000d0 4f bc 3d 7d 21 ac b6 bf 20 85 61 c1 62 b7 9f 3f
       -0.08856400783200623 0.030972998669658414
0000e0 de 9a 95 89 a3 ae a3 3f 7e 63 cf 5c f8 16 c9 bf
       0.03844176344391824 -0.19601349384063477
0000f0 fa 5e 92 07 6c d4 b4 3f ea a8 e7 ce 33 68 bd 3f
       0.0813663023458239 0.11487125207318952
000100 bf 0c 8e 39 be 52 b3 3f a7 b5 ba db 35 2d a3 3f
       0.07548130898617254 0.037454302856853965
000110 d0 93 f0 bf dd ca 97 bf 42 9a 59 6e 92 b6 a2 3f
       -0.02323481067664429 0.036549163790188036
000120 ce 6e a2 a8 be 78 b4 bf d0 bc b9 79 b6 a3 a1 3f
       -0.07996741883328726 0.03445215450198591
000130 4b 32 04 25 25 b7 ba bf 41 35 98 97 b0 8d a3 3f
       -0.10435707238884466 0.038190382485576276
000140 6a e8 97 f4 58 1e c0 bf 0c af b6 7d 50 7f b7 3f
       -0.12592613165890337 0.09178641385249992
000150 8b 63 8d 12 18 aa a4 bf 7c 2f a2 e4 16 53 8b bf
       -0.0403602144858218 -0.013342074253408269
000160 3c 96 a1 79 ba b3 cf bf ea e2 74 2c 50 b3 90 bf
       -0.24767237605117198 -0.01630902549115635
000170 17 e0 3d 77 1e 3a a2 3f b9 6e 34 5b 53 a1 7c bf
       0.03559966283404508 -0.0069897895912409075
000180 03 fd c5 3b c0 10 cc bf b0 fb 7f 30 85 5e be 3f
       -0.21926119726774837 0.11862976488190102
000190 7d 64 6b 14 3c d8 b9 3f 07 29 b7 1e 73 a5 81 3f
       0.10095572947047234 0.008616351485120534
0001a0 71 3f 1a 4f 78 a0 80 3f f6 b3 83 fc 33 a0 76 bf
       0.008118572153108268 -0.005523875304999306
0001b0 5d f9 a3 68 d6 c2 ba 3f 1d aa 70 a7 84 8a ad bf
       0.10453548483562743 -0.057697434844460306
0001c0 9f 2c 1e 22 bc 02 b5 bf bd f3 1b 1a 9f 3c 9c 3f
       -0.08207298119502802 0.027575002640322078
0001d0 d8 44 9f e8 d8 f8 c2 bf 0b d9 a3 c9 3c 37 c1 3f
       -0.1482192169046701 0.13449821325020425
0001e0 cd 7e 5b 5b 89 9d ba 3f 39 5c d0 89 3b da 9d 3f
       0.1039663169899498 0.029152803694241867
0001f0 87 04 0a 7e 58 1d a6 3f 8f 37 ea 53 74 28 ba 3f
       0.04319263971866243 0.10217978523925651
000200 2c 6c ef 55 d4 9e ac 3f db cb 1e 6e 7c 7e 7c bf
       0.055899272432462815 -0.0069565640023254395
000210 51 28 8c e4 07 e6 c6 3f 35 80 8c 45 4d 7f c0 bf
       0.17889498385949534 -0.12888494392336872
000220 88 5d 75 95 28 f0 b0 3f 21 24 14 fa bf 1e b2 bf
       0.06616452835930009 -0.07078170638500626
000230 af 70 e6 c7 c8 03 c2 bf 13 ee 97 bd 2a f8 c6 bf
       -0.14074048767804956 -0.17944845445150345
000240 08 ce b9 36 24 95 bf bf 23 0c e0 04 99 9b a6 bf
       -0.12336946807936766 -0.04415586647521532
000250 8c 3c fc 65 fb e5 bc 3f 9a 71 b4 05 3b 46 b0 bf
       0.1128842472064539 -0.0635716332366826
000260 e4 44 ee ed 74 07 c0 3f fa 1d 89 86 8b 24 d0 3f
       0.12522756211959696 0.2522305311035492
000270 ff 18 09 38 ad 2f a2 bf 64 6b 4a fb 8a 88 8b 3f
       -0.03551999386813697 0.013444028657706837
000280 a9 d0 e8 88 cc 6d b9 3f a7 db 00 ba b8 e5 aa 3f
       0.0993316492320583 0.05253388662861563
000290 93 e8 bb c8 ec 43 c6 bf 0f 4b fb a6 7e a2 cb bf
       -0.17394790460077 -0.21589644578360676
0002a0 81 a6 6d d2 5a 22 b2 3f 7c 1f 87 1c 1c 39 bd bf
       0.07083671224031642 -0.11415267654876787
0002b0 08 a4 0e db 4d 94 b6 3f b2 2f b7 08 8c 9f c7 3f
       0.08820044134212435 0.18455648828091636
0002c0 42 d1 59 2b cb 17 cf 3f 57 b0 73 f0 78 52 c4 bf
       0.24291362396946609 -0.1587668584901418
0002d0 ce 87 3d 06 4a 77 d7 bf 7d 52 ff 34 23 53 ba bf
       -0.36665583238038557 -0.10283107799416231
0002e0 91 ca da 26 4b 8d d1 bf e1 ab 40 6a 9f 38 b8 bf
       -0.2742488746108985 -0.09461399406488581
0002f0 ae 4e 93 d5 b3 37 9a bf 04 c1 c0 87 e1 83 b4 bf
       -0.02560311308918866 -0.08013734401970757
000300 bc 7c 2a 8c 59 d6 c7 3f d3 e7 76 12 6d 7d c0 3f
       0.1862289366153841 0.12882769967637717
000310 5a dc 8e 42 e9 61 bd 3f 8e b3 ae 06 23 25 d4 3f
       0.11477525591804874 0.31476665165501394
000320 f8 9d 60 3b 53 b4 d7 bf e5 7e 11 39 c6 96 bf bf
       -0.37038117216658817 -0.12339438336629945
000330 1a f5 12 77 0e 47 c5 3f f0 1b ff 21 85 9c c3 3f
       0.16623097242510526 0.15321411285387354
000340 d9 1e 85 15 df 54 01 3f 6a c9 9d 50 5f 08 c0 3f
       3.305726812868692e-05 0.12525550304742278
000350 4d 33 65 da 14 f2 a9 3f fb 53 1a 2f da a5 c4 3f
       0.05067505994757102 0.16131140994971802
000360 31 c4 6b 59 3d 45 c0 bf 4c a1 46 5f 37 3b 8b bf
       -0.12711302629716806 -0.01329653987416237
000370 6f 19 d3 db 2f fd ab 3f 62 ac a0 f5 90 a8 c2 3f
       0.05466603811651082 0.14576923364197386
000380 88 20 7a 3b 89 0b bf 3f ae 97 76 6a d4 2a b9 bf
       0.12126977636410363 -0.09830978011322486
000390 d1 02 5e 50 f4 4b be bf 17 35 dd 08 71 13 61 bf
       -0.1183464714249667 -0.0020844657619024753
0003a0 6a cb d5 ec 2b 14 d5 bf 39 54 35 56 e1 f5 a1 3f
       -0.32935617569380915 0.03507904221866238
0003b0 cc d1 a4 88 58 87 c3 3f d8 12 4e 3c ba 01 b8 3f
       0.1525679270940955 0.09377635929383688
0003c0 5a 10 9e d2 37 06 a8 3f dd bb 55 67 58 97 a4 3f
       0.046922440014015535 0.04021717320835425
0003d0 89 e6 a7 4d 88 f6 9b 3f c9 77 b0 07 4d bd ba 3f
       0.027307634105432164 0.10445100248077134
0003e0 f9 5d 87 fc 6a 18 8b 3f 04 20 9b 96 d9 3c a8 3f
       0.013230167228285504 0.047339248308674114
0003f0 d0 ef 47 00 33 f5 8f bf 29 db db 1f 3d 33 c8 bf
       -0.01560439915282777 -0.1890636830864534
000400 d0 04 9c 4e fc 6a ac bf 86 8b 64 65 6b e5 bf 3f
       -0.05550373515689844 0.12459441399964363
000410 21 62 d8 1f f8 8a 96 3f c3 c3 28 a6 74 73 a7 bf
       0.022014500564269682 -0.04580273178397178
000420 94 80 c1 6f 16 7f c5 3f 46 b2 7f 18 f0 30 a4 3f
       0.16794090706662657 0.03943586634691036
000430 09 86 7f 68 22 ff a5 3f d6 40 7e 39 68 b2 a2 3f
       0.04296214604961441 0.0365173883611775
000440 02 5c 69 28 22 04 ad bf a9 85 78 92 31 b7 aa bf
       -0.056672160561610965 -0.052178906564459844
000450 37 6a bb 8b f5 df a5 bf 29 4a c9 0b 04 90 9c bf
       -0.0427242978164099 -0.02789312669694702
000460 e1 db d9 37 69 70 c6 bf b2 1e 51 57 89 25 bb bf
       -0.17530551173305667 -0.10604151136169085
000470 c0 1f 4b 76 37 2f a5 bf fe 2f f7 d7 6e bc 85 bf
       -0.0413758594418705 -0.010613313642259922
000480 c5 98 4b ec 23 c6 9f bf 0a af 50 aa a8 17 bc bf
       -0.031029282853432223 -0.10973600538335063
000490 32 83 a8 26 fe b8 50 bf 17 bb b4 e9 4a 09 95 3f
       -0.001020668215126541 0.020543261064797393
0004a0 e9 5a c0 35 3b 12 b0 bf 08 ab 9e d1 f7 3c ac 3f
       -0.06277818739213682 0.05515264924846092
0004b0 cf 36 d7 3e 87 4c c0 bf 30 76 34 9c eb 04 c6 bf
       -0.12733545845406133 -0.17202515723413248
0004c0 f7 c0 f7 af 98 e8 ae bf 25 fe b3 b2 f2 bb b1 3f
       -0.06036831996959962 0.06927410948628017
0004d0 d4 da 0a 29 e3 ea 71 bf e4 c5 07 b9 91 48 b6 bf
       -0.0043743966531823615 -0.08704481856673102
0004e0 03 6a 80 73 2d 33 b1 bf 84 e4 72 7e 52 22 b5 3f
       -0.06718715734351836 0.08255496585015193
0004f0 d8 65 a7 11 d8 33 91 bf 26 65 67 2a be 62 b4 bf
       -0.01679933173895684 -0.07963169608355666
000500 77 94 42 7f be 4f b5 bf b8 0c 0e 2a 7c 10 a6 bf
       -0.08324804884849067 -0.04309452069630865
000510 fc b2 ac 6f 68 85 a1 3f 0f 59 96 ef f6 5d ac 3f
       0.03422094691481978 0.05540439295434584
000520 48 8c d0 f5 8f 1f ac bf 1a b0 fa 3d 97 cb c7 bf
       -0.05492830157916068 -0.18590059782343432
000530 13 bd 45 2d 2d 97 b5 3f 6c c4 e4 9c 29 d1 a2 bf
       0.08433801989825822 -0.03675203361707066
000540 21 7c 5d e4 08 60 b5 bf af 45 df c8 d3 dd c2 bf
       -0.08349662375756896 -0.14739463146410745
000550 5b c9 57 76 47 4d c6 bf 3c 24 9e 57 79 05 86 bf
       -0.1742333724828978 -0.010752628313428152
000560 7c cf 4e a0 eb 89 b4 bf 29 21 3b 68 9f 6e ab 3f
       -0.08022949851766542 0.05357835910177961
000570 6c 15 0c a2 c5 9e b5 3f aa f8 73 fc eb 64 ab bf
       0.08445391851645007 -0.05350434738828487
000580 d2 a6 9a cf d6 29 9f bf b7 d7 90 01 fd d3 a6 bf
       -0.03043304102053563 -0.044586092415939964
000590 8f f0 fd c4 85 8c b5 3f b6 fc dd 8e 33 d7 86 3f
       0.08417545375226808 0.011152651593646073
0005a0 56 0b e2 fc d8 9c b0 bf 11 52 4f 25 f6 c8 b6 bf
       -0.06489330457592976 -0.0890039292419902
0005b0 d9 f1 1e 19 22 ba bc bf c6 4c c1 b9 06 74 c7 3f
       -0.11221516717245751 0.18322834081718592
0005c0 4b 77 86 80 e5 dd bb 3f 7f 9f da 57 ad 68 a2 bf
       0.10885462177108456 -0.035954873060574315
0005d0 08 91 ed 05 df bc b1 3f b6 35 e5 5a e5 56 b3 3f
       0.06928819555975363 0.0755446764862516
0005e0 53 6e 16 8f 90 e2 b3 bf f3 9d 6a 7f 60 ed aa bf
       -0.07767585271215553 -0.052592292360085134
0005f0 13 5a 81 9f d7 da b6 bf 75 c8 72 95 02 54 b4 bf
       -0.08927676815196887 -0.07940689228670002
000600 26 a3 c4 c3 87 83 c2 bf 7f 46 b1 83 bc 6c b1 3f
       -0.14463898715009654 0.0680654355540131
000610 5b a5 45 49 41 5e b6 3f b5 14 69 a9 7d 33 b5 3f
       0.08737571753376498 0.08281693826673371
000620 f3 ef 99 b3 0d 09 a3 bf f2 af 63 da bb 8d bc 3f
       -0.03717844788931748 0.11153768617413087
000630 cb 28 2d 69 4f 71 bd bf fa d8 9e 3a 3d 96 b5 bf
       -0.11501022641928953 -0.08432371789135465
000640 c6 9d 9f 14 1f 2b 9a bf 1b b8 a8 60 81 1d a6 bf
       -0.025555120118864648 -0.04319385819358975
000650 ea 7d b6 d6 f6 a8 91 3f 05 f8 4d 93 ae f2 78 3f
       0.017246109824211965 0.006090814528645798
000660 b4 bc c0 79 4c 27 a1 bf d2 73 59 65 e4 11 b8 3f
       -0.03350295053712085 0.0940230128703228
000670 48 a9 22 e9 5d f4 a0 bf 63 d9 df ad a7 68 bc 3f
       -0.033114371022139155 0.11097190852146847
000680 96 76 65 bd 66 96 a9 3f 43 34 e5 b3 60 62 a0 3f
       0.049975596065207004 0.032000562629584305
000690 ec 16 d2 4d e4 2f af 3f 58 fa c5 2c a7 12 ad 3f
       0.060912260531990586 0.05678293630170533
0006a0 d1 43 3e c2 4e 42 c5 bf a6 58 97 93 8d 6f b4 3f
       -0.1660860489323839 0.07982716420460409
0006b0 2e e2 a2 2a 91 ec c0 bf 58 26 5c 29 34 af b7 3f
       -0.13221945363854232 0.09251714715733195
0006c0 d9 2f 5c 09 e9 2f b2 3f 56 55 a2 42 15 e9 b0 3f
       0.07104355314748946 0.06605656506356658
0006d0 34 0b 34 4b 03 16 7c bf 39 3b 07 ff f7 ca b0 bf
       -0.00685693060518382 -0.06559705711627552
0006e0 bc fd 80 09 bc da 93 bf fa 5b 47 c7 f3 09 c3 3f
       -0.019389093475408833 0.1487412188568838
0006f0 34 8c 27 6c 8e b8 aa 3f 9d 4d db 18 38 b5 c6 3f
       0.05218930311436801 0.1774053689356209
000700 57 2d a2 3a c4 4e c5 bf 8d 68 dc c3 d7 3e b7 3f
       -0.16646626341785506 0.0908026555229375
000710 99 da aa 7a ef 47 be 3f d2 f5 3a 18 78 06 bc bf
       0.11828514809426806 -0.10947371093330752
000720 60 8b 44 13 ef 60 b9 3f af 81 e2 d8 1f 87 a8 3f
       0.09913534374622435 0.04790591738242555
000730 33 a8 5f 37 fd 26 b5 3f d4 c5 c8 93 13 5d a2 3f
       0.08262617685218814 0.03586636713988481
000740 b3 fd 7d 6d a9 b2 85 3f b7 1e 3d 89 6c 4c b7 3f
       0.010594676641402545 0.09100988722377222
000750 9c 43 46 2a 74 59 bd bf 4c 73 3b 37 bc d9 ab 3f
       -0.1146462062081483 0.05439556287976774
000760 a0 0a d5 97 0e d7 9c bf d2 30 75 96 ac 75 64 3f
       -0.028164127366162917 0.0024975176671998356
000770 02 8f fc 47 4f 79 b4 bf 58 05 87 e7 e1 79 b6 3f
       -0.07997603900417619 0.08779727842831642
000780 80 84 36 e5 f6 32 b3 3f 60 40 06 6c 1b 20 b0 bf
       0.07499640556354059 -0.06298991572680412
000790 4c 42 75 91 99 d4 c3 3f 7f 2a ee af 93 65 b6 bf
       0.15492553331798076 -0.08748744054006784
0007a0 76 13 f4 1d 4f dd bf bf 70 27 e6 df 57 f9 92 3f
       -0.12447065812382427 0.018529294052803846
0007b0 6d df 96 89 71 08 b9 bf 51 52 97 15 91 3c b6 bf
       -0.09778508767237577 -0.0868616750443121
0007c0 19 56 2d fe e1 8e 51 bf 3e 72 f8 91 ed 8f b2 3f
       -0.0010716635667525952 0.07250866712315315
0007d0 30 3e 4c 2c 85 f9 c1 3f 24 95 f0 13 0c 9e ad 3f
       0.14042725241641696 0.05784642928510156
0007e0 31 ab 45 8c 41 a7 bc 3f eb a3 69 40 d5 cf a7 3f
       0.11192712473500134 0.046507515061257575
0007f0 70 02 0f 91 3f 37 a6 bf 1e 88 eb af a4 ba 65 3f
       -0.04339026113257638 0.0026524750277170514

net.2.bias f8 [64]
000000 03 cf 9e 74 e4 ce bd 3f 0e a3 9a 55 3b 81 a1 3f
       0.11643817755867407 0.034189085197175215
000010 7f 82 56 69 f6 3c 77 3f 4f ab d3 95 25 a6 9c 3f
       0.005673372788266406 0.027977549810127397
000020 b4 4f 27 75 78 8a c2 3f 44 a3 b4 bc e5 0e a6 3f
       0.14485078544987362 0.04308240822348933
000030 fd f3 06 02 9c 89 8b bf 17 5f ef ca 76 b6 8a 3f
       -0.013446062862266567 0.013043335025869447
000040 4d 24 35 3f 39 fa b3 3f 59 3b eb 15 60 44 bc 3f
       0.07803685944703993 0.11041832480553405
000050 57 9a 84 4b c4 78 b4 3f 48 64 68 a6 f5 8e a8 3f
       0.07996775478077588 0.04796569496483777
000060 22 48 9a 3c a2 eb b9 bf cd ac 71 fe 74 70 b1 bf
       -0.10125173549229818 -0.06812220775616425
000070 65 72 10 36 da dc bb 3f b7 bb e0 f2 90 1d 9a 3f
       0.10883868999412412 0.025503411125267408
000080 5d 5d 5f 8a 43 f5 bf 3f 25 f9 f2 7d 78 bc b5 3f
       0.12483617904887497 0.08490708422593636
000090 bd 6a b1 dd ba 20 a0 bf 2a 74 a8 8c 5b 2e a8 3f
       -0.03149970966543012 0.04722868053452374
0000a0 d8 23 50 c3 f2 8a c2 3f 60 34 2e 05 0e 1c 78 bf
       0.14486536537904615 -0.0058861301103095565
0000b0 11 96 44 2e 6a 35 b6 bf 47 1d a3 c9 a9 05 b0 bf
       -0.08675254468524708 -0.06258641407759057
0000c0 a1 f1 1c 12 ca b9 a6 bf f2 be b4 66 a5 58 bb bf
       -0.0443862101660415 -0.10682138211700101
0000d0 7f 0c 15 bc e3 2f b2 bf 07 9e b3 7d 16 7e a8 3f
       -0.0710432371316063 0.047836973995625746
0000e0 d6 86 d7 2b 06 16 c7 bf 29 d3 ed a0 9f 1a 9b 3f
       -0.18035962238996345 0.026468748280836927
0000f0 33 89 d9 15 f6 8e b4 3f 88 12 c3 d5 81 8e 97 bf
       0.08030641587678104 -0.023004559204098857
000100 5b 9f 71 c8 2b ff c2 3f 8f 52 24 83 8f e7 a9 3f
       0.14841220176026124 0.05059479213574491
000110 f2 b6 4f d0 ae ee 96 bf bb fe 9c 03 d3 f9 bc 3f
       -0.022394877876584958 0.1131870158978882
000120 be d5 0c 37 4b 7c 87 bf bb 50 cb 61 ff 36 98 3f
       -0.011467540376183357 0.02364729914081985
000130 4e 7c 7d c8 c9 a1 66 bf 7b 7e 70 b3 5b fa 84 bf
       -0.0027626935079037357 -0.010243145383412191
000140 52 23 b5 f6 74 89 c1 3f a7 05 9c bf 7c 3c a0 bf
       0.13700735136287762 -0.03171148146612817
000150 d5 0e 9f f6 f4 f4 a7 3f 44 0d b6 f2 cd 5c b7 3f
       0.04679074774278794 0.09125983405651988
000160 dd 43 36 47 9d 89 b2 3f 19 01 25 07 37 12 c0 bf
       0.07241232861112175 -0.1255558762441147
000170 43 d7 d9 1b 02 90 84 3f db e2 0b 8a 56 bd 5a 3f
       0.010040298914855255 0.0016320557699016
000180 e2 90 ba f3 8b db a5 bf 0e 68 4f 3d 94 25 a7 bf
       -0.042690633298919214 -0.04520858047881414
000190 d4 49 ce ac a4 5f aa bf 1a 4d 4c ac f1 2c a7 3f
       -0.051510950178584786 0.04526477077720355
0001a0 d0 5d 32 37 e6 57 bc bf 1f 6f 6e f7 24 11 bf 3f
       -0.11071623656822926 0.1213553527908826
0001b0 2f f2 a8 cf 8d 8b b8 bf 6e 1c 2b 19 7d 54 84 bf
       -0.09587942428419959 -0.009926774340227786
0001c0 a7 c7 2e 06 30 1f a8 3f a8 73 5f bf 5b a1 c6 bf
       0.04711294246170832 -0.17679926723840578
0001d0 dd 3a 73 b9 06 99 ae bf 93 30 50 27 59 79 b1 bf
       -0.05976124776645062 -0.06825787744327476
0001e0 ca 9c fb 60 28 54 c2 bf 73 5c 48 9a 70 11 c0 3f
       -0.143193290095246 0.12553222211201706
0001f0 5d db 83 d6 08 65 c9 bf cf 0e 10 88 e8 43 91 bf
       -0.19839582895630317 -0.016860612206086863

net.4.weight f8 [64, 64]
000000 36 a6 b9 3d 8e 30 a6 bf 49 b0 df 9a ce a0 a9 3f
       -0.043339200053037194 0.05005498543309323
000010 59 93 e9 e9 a3 7f 85 bf 9a 85 55 f3 85 de c4 3f
       -0.010497360778751451 0.16304087049051647
000020 b5 16 01 fb 6d d0 9f 3f d9 ac 00 ed 5d b0 be 3f
       0.03106853336819056 0.11987864528844074
000030 c6 57 5a 59 52 4f b9 3f d2 9a e4 8a 48 25 70 bf
       0.09886660272090272 -0.0039418061917674985
000040 bc 34 f3 e6 ea d5 78 3f 32 a2 eb d6 51 86 bf bf
       0.006063382708089534 -0.12314330575066704
000050 39 52 81 10 53 6b a3 bf a0 d8 2f 17 fc d1 a0 bf
       -0.03792819572905554 -0.03285205634158328
000060 f5 81 aa a6 78 0d bb bf 5a fa 80 16 65 d0 ba 3f
       -0.10567430562014819 0.10474235343370122
000070 16 4d 97 b6 11 e5 a6 3f 5d 51 3e 7e c9 19 c5 3f
       0.044716409243529195 0.16484945930700237
000080 21 0d 04 df ea f3 ad 3f 29 33 91 45 80 b4 ad 3f
       0.05850156757699155 0.058017738811577076
000090 22 8c 58 71 92 6e a2 bf 22 a7 99 3a 2f 6d b1 3f
       -0.03599984773270416 0.06807227307004074
0000a0 c8 d8 8e d3 50 25 97 3f d1 2c 48 2c 66 ba b7 3f
       0.022603285706019688 0.09268797474958325
0000b0 2f 0f b4 0a 95 4e 70 3f bb 24 2e c3 ad db b8 3f
       0.0039811918206884974 0.0971020318521764
0000c0 98 f1 e3 7f 1f 00 a5 3f c3 16 d8 e3 7f 86 a2 3f
       0.041016563760396696 0.03618240028667465
0000d0 9e 7b 41 ad 78 29 d2 3f 9c 63 db 18 35 87 c5 bf
       0.2837812129927729 -0.16818870271415853
0000e0 83 80 5b e4 b7 d9 b1 bf c8 d1 56 f7 73 f7 73 bf
       -0.06972836804516373 -0.004874661438794843
0000f0 dc c0 ee 49 e8 a9 b0 3f 9c 44 86 51 66 46 c3 bf
       0.06509258084293229 -0.15058592777908053
000100 10 f8 ec 12 22 e9 c7 bf f0 d9 33 46 79 c9 b6 bf
       -0.186802157631917 -0.08901174510888388
000110 bd 36 9c ef 10 ff a6 3f 34 60 04 f2 df 62 b3 bf
       0.04491475033692669 -0.07572745951290544
000120 86 c8 09 3f 0e 8f b9 3f 19 00 04 6a 92 d2 90 bf
       0.09983910597819276 -0.01642826816623719
000130 f5 b0 66 55 7c d3 b2 3f 6a a2 47 d4 34 b5 b4 bf
       0.0735395153521415 -0.08088998968708841
000140 a9 72 4b 75 51 14 ba 3f 8c 5b af 3e 94 74 b1 3f
       0.10187253106728157 0.06818510561366348
000150 48 4f aa 95 3f dd b9 bf 3f 6a 99 bc f5 3c b9 bf
       -0.10103223232209502 -0.09858642439341113
000160 f1 69 af 16 2c f8 9f bf 63 5d 06 d6 1e 4d b2 3f
       -0.031220139393420557 0.07148926472870225
000170 36 aa ea cd 25 8e 96 bf 82 12 82 ed 4a 18 c4 3f
       -0.022026625340610027 0.15699135396075198
000180 b6 5b 60 c9 77 85 b7 bf c1 a2 dd 03 be 9a bf bf
       -0.09188030878463746 -0.1234549292982008
000190 3b d5 d3 63 e3 59 b5 3f ce a2 fb e3 9e 8d b1 3f
       0.08340283572382116 0.06856720987310469
0001a0 cb c6 e2 05 41 73 af bf 89 20 d8 5b de a3 cc bf
       -0.06142619320725159 -0.2237508724649653
0001b0 fb 2f 62 64 29 c6 aa bf 81 c2 c9 0b 54 fa ad 3f
       -0.05229310369858805 0.05855047840021133
0001c0 3e c7 ef 16 d6 ec b7 3f 28 2e f4 69 ec 0d d3 3f
       0.09345758495308318 0.29772482249311105
0001d0 c0 d7 c4 b2 b8 83 c1 3f dc 3b 06 0d 90 29 a7 3f
       0.1368323204894164 0.04523897322643908
0001e0 f2 10 04 04 d0 91 c3 3f 87 1a 68 62 de c9 c2 bf
       0.15288734623039307 -0.14678554348957482
0001f0 da a1 d7 be 8f 40 c5 3f 15 c3 e8 18 85 66 c8 bf
       0.1660327607962831 -0.19062865940352283
000200 56 ad d6 01 0a e9 ad 3f 6e d4 dd 5a 73 04 cd bf
       0.05841857216304429 -0.22669832169382026
000210 4f 38 a0 b4 69 34 b8 bf 1e 9c 89 50 96 23 93 bf
       -0.09454975757418647 -0.01869044176637768
000220 d4 47 ee a1 c5 08 af bf a9 9e 1f aa 9e 56 b7 bf
       -0.06061380006498465 -0.09116546300321694
000230 e5 7b 97 83 45 28 97 bf 52 f6 24 eb f4 93 87 3f
       -0.02261456123039442 0.011512673784291359
000240 b7 bb 0b 3b e1 7d c2 bf 46 48 60 c4 dc 81 b7 3f
       -0.14446654685113255 0.0918252925332875
000250 44 44 61 53 fc 69 b4 3f 3d b7 eb a0 f0 73 a4 bf
       0.07974221263545284 -0.03994705166210941
000260 4e 52 e6 ee 2d 80 a6 3f 03 96 0f e4 08 a5 bf 3f
       0.043946681416092134 0.12361198013203283
000270 15 b9 e7 7f 65 af 92 3f 06 2a f6 3a 53 14 ab 3f
       0.018247209483825595 0.05288944334741434
000280 28 e3 e8 52 98 54 b3 3f e3 c4 15 94 c2 33 b4 bf
       0.07550956749117843 -0.07891479602200806
000290 5c 04 ca b0 63 7f c2 3f 4e d7 00 da 3d 95 ac bf
       0.14451261646539393 -0.055826123105744516
0002a0 63 32 d9 5a c0 ed 9e 3f e8 ee 29 f2 d1 b3 3a bf
       0.030203824562976666 -0.00040744662889101316
0002b0 16 c4 86 5f b5 79 b0 bf ff e5 90 7c b8 06 9c bf
       -0.06435712415874692 -0.027369387247949458
0002c0 f7 e8 71 07 a3 74 bd bf 70 90 d0 36 e3 e6 b3 bf
       -0.11506098682176345 -0.07774181450128181
0002d0 01 f8 cf cb f1 f3 ab bf 06 2d b2 22 11 61 bb 3f
       -0.05459552395767276 0.10694987389631558
0002e0 1c b7 64 2e 20 0f b1 3f ab 55 5d 4f 8f b3 c1 3f
       0.06663704998637993 0.13829223036979718
0002f0 57 38 b9 27 38 4b b6 3f 61 4a c5 ac 65 b0 9a 3f
       0.0870852562886467 0.02606352679260693
000300 10 18 99 cd 2b 2e aa 3f f1 1b 18 60 a2 60 a0 bf
       0.051133507583060234 -0.03198726103806127
000310 46 3e 1d 49 7c 45 af 3f 4a 5c 7e 5f 17 2f ad 3f
       0.06107700722224911 0.056999903113301345
000320 4c e7 c6 95 60 ae be bf 0e cf 5c f0 f4 54 b1 bf
       -0.11984828621544102 -0.06770258777833879
000330 2d 41 91 2c aa 14 c8 bf 5c 5b cd 59 d1 ff b0 bf
       -0.18813063789503684 -0.06640346949039383
000340 e6 14 eb c6 03 ed bc 3f 6d e3 bd 55 06 59 ab 3f
       0.11299155813601977 0.05341357990886917
000350 e7 b8 7a fc c8 0d b8 bf 7e 52 21 07 d9 7a 7c 3f
       -0.09396034397170504 0.006953094258353885
000360 18 0e 85 4c 75 a7 af bf 31 81 fb 6a 60 d2 c3 3f
       -0.061824479666509 0.15485768531562763
000370 b3 e5 33 dd 42 bd c0 3f dd 22 bb 10 25 e3 80 3f
       0.13077579308428042 0.008245744298066732
000380 57 e9 37 2e c6 bb af 3f a9 3e a6 03 7b 55 b6 3f
       0.06197947801770692 0.08724182929131054
000390 a6 d7 66 64 28 1f bb bf a3 c0 dc 70 6b 5f 9f 3f
       -0.10594418002332748 0.030637434733933443
0003a0 f3 42 34 8f 86 dd 83 bf eb fd ac 74 9a b0 73 3f
       -0.009699870343440753 0.004807093947249079
0003b0 65 5c 43 9d 5d 22 c5 3f 86 b2 1d 0a d5 6f b2 bf
       0.16511125735152912 -0.07201892373059068
0003c0 5b 21 dc d5 a9 f7 1b 3f 1c 41 f9 8f f3 69 b1 bf
       0.0001066872987075576 -0.06802294030172046
0003d0 8f 0d da a3 03 8b ad bf 9d 8c 64 22 81 fb 94 3f
       -0.05770121932166738 0.02049066326538861
0003e0 42 e4 ba b8 48 91 9f bf 19 45 3d 7c ef 10 ae 3f
       -0.030827652239825427 0.058722957530912896
0003f0 7c bb 25 19 22 22 c1 3f bc f2 e9 08 0c 81 a4 bf
       0.13385416248226167 -0.04004705056010979
000400 98 0d cf d7 c8 50 a1 3f f1 99 7a ec a9 53 c9 bf
       0.03381946215042858 -0.1978657154733834
000410 d8 de 13 ad e9 e8 c5 bf 09 dd 81 ab 52 81 ad bf
       -0.17117043448501224 -0.05762728065104212
000420 af 67 0d 91 8a 41 97 3f a4 4a 59 84 a6 9c 4d 3f
       0.022710957625669156 0.000903683955309671
000430 55 2d a8 96 f1 dd aa bf 6c a7 3f 63 dd 9c b0 bf
       -0.05247454608987804 -0.06489356682837205
000440 03 71 76 86 a8 ab 9e bf 69 33 e6 8e e8 1e bf 3f
       -0.029951699454259472 0.12156537522078072
000450 94 8b 02 1d ac 7c b1 3f bc 3e 24 e2 40 7d a5 bf
       0.0683085985970549 -0.04197123299138414
000460 9b ca 40 f6 8d 06 9b bf 31 77 7c 4d fe 23 b5 bf
       -0.026392191081138532 -0.0825804652381208
000470 89 4f d1 d9 a8 54 c0 bf a9 c2 31 46 9c 56 98 3f
       -0.1275836051523778 0.023767892631840457
000480 96 d3 88 b1 f3 f5 c1 3f 36 2b d3 96 20 7d bd bf
       0.14031835716891966 -0.11519054109809876
000490 2a 04 4c 0f 73 36 b3 3f 58 43 5d 10 84 8f 3e bf
       0.07504958270512022 -0.00046631788460609535
0004a0 28 6a 09 6c c2 f2 b1 3f 80 14 97 ac 3c 85 b0 bf
       0.07011046540848354 -0.06453303540827626
0004b0 05 2e ac 45 6e e2 c1 3f 19 0e e1 60 de ce b8 3f
       0.13972261812192258 0.09690656533444332
0004c0 f4 d1 5f a8 93 e7 be 3f ba e7 81 1e ff 83 b9 3f
       0.12072108135891552 0.09967035765467261
0004d0 16 47 b8 86 4e 7a c4 3f 49 3c ae cf a3 04 cd 3f
       0.1599825055896466 0.22670409813551576
0004e0 59 e0 fe c4 f5 61 9a bf 8e 00 cd 64 21 72 96 3f
       -0.02576431288591183 0.021919748093978834
0004f0 df c4 c9 6e b1 ab a0 3f ea 70 2d fa 43 5e a8 bf
       0.032559914373345704 -0.04759418896603214
000500 00 cd aa 2c 38 44 ba bf 6d ff 58 4a 9a a0 bf bf
       -0.10260344591624815 -0.12354435267570603
000510 77 83 81 62 61 ca bd bf 76 1f 79 f4 ab 3c a8 bf
       -0.11636932997636316 -0.04733788832942214
000520 dc 0e d1 bd 46 42 a0 bf ee 02 67 cb 51 2f cf bf
       -0.031755648299194056 -0.24363157684094666
000530 56 af c6 dd 1c d0 cd bf 17 50 3a da a5 8c 96 bf
       -0.23291359738265766 -0.02202090401131337
000540 84 79 de 81 33 65 b3 3f 99 95 77 ea 9b f3 c6 3f
       0.07576295776968861 0.1793093581065193
000550 38 c0 e9 51 a6 ad bd bf d5 8a 60 f5 db 99 bb bf
       -0.11593093395072251 -0.10781645527508073
000560 b7 c2 d5 70 c5 f4 79 3f 7d c3 a1 fc 86 1f b7 3f
       0.006336947682357311 0.09032481830378276
000570 77 ae dd af 70 30 a1 bf b9 4a ca 57 50 45 91 3f
       -0.03357269427109782 0.016865973814285982
000580 9b f1 67 3b c2 6d a2 bf d6 16 45 f5 20 6f 8d bf
       -0.035993642570221605 -0.014372117505114284
000590 06 10 6f ff 7f 7b c8 bf 99 d3 4c db 18 53 b6 3f
       -0.1912689206347979 0.08720546106344641
0005a0 fa 97 b8 95 69 4f bc 3f 4a 08 a0 b6 87 a1 bd 3f
       0.11058673768329177 0.11574600418683292
0005b0 58 ef 78 10 90 96 bd 3f a7 8c 54 c9 38 b4 b0 3f
       0.11557865526350264 0.06524996676721405
0005c0 1f 6b 9d b4 9f 33 82 bf 97 b2 4a 96 3d 33 96 bf
       -0.008887527179174235 -0.02167984227951311
0005d0 22 df 4b 0c 42 7e 50 3f 59 66 86 32 61 d0 af 3f
       0.0010066647529906676 0.06213668576965565
0005e0 96 61 31 eb 3a 96 9e 3f a1 fd 13 8f 6c de bc bf
       0.02986995754722129 -0.11276892178647425
0005f0 7d d2 5f ed 81 68 ab bf b3 07 2b 6b 8d 17 bc bf
       -0.053531704164844186 -0.10973438135536533
000600 ce 70 88 b6 d8 1d 7e 3f f4 08 6e 50 76 36 b7 bf
       0.007352682624084573 -0.09067477668398621
000610 ab f2 5f d8 d2 86 c2 bf f8 82 2e e8 52 4b ae 3f
       -0.14473949017692198 0.05916842540978523
000620 95 b5 ba a8 2a 87 a7 3f 08 40 a4 78 03 c7 bf bf
       0.04595311460193866 -0.12413045592643368
000630 d6 3b 69 26 34 cc a0 3f b4 22 ac c2 a2 0c 83 bf
       0.03280795067677615 -0.009301444593363108
000640 9c cc 16 8e c9 98 85 bf f9 64 ba 1e ca 02 93 3f
       -0.010545324944223382 0.01856532871770342
000650 e5 a8 87 6a 33 26 ad bf bf 15 46 ee 6f 23 b2 3f
       -0.056932074312344295 0.07085322921019264
000660 18 69 5a 12 8a 0c 9a bf 07 32 43 a6 fa 00 c4 bf
       -0.02543845879572712 -0.15627987974438914
000670 65 9a 90 53 44 1b c0 bf 2e bf f0 71 60 dd b6 bf
       -0.1258321197539828 -0.0893154409575316
000680 ea 58 95 7c e4 94 b6 3f 3b fa 0e d4 be 74 c2 3f
       0.0882094196470892 0.1441877875749514
000690 3e cd da a5 65 7e b6 3f 46 31 86 5a ee 61 b8 bf
       0.08786616610705253 -0.09524430952132432
0006a0 9d c5 2e 55 6b 4d 36 bf 31 9f 4b b9 f8 8f a0 3f
       -0.00034030790737479296 0.03234841596514427
0006b0 f6 c6 5c 1c 39 d8 b2 3f 51 ca 04 e9 3f df be bf
       0.07361180250589058 -0.12059401930745507
0006c0 19 29 5e 0e 41 48 9e 3f 51 a2 1a 83 5a 9d 89 3f
       0.02957250261491948 0.012507159353235016
0006d0 39 ae e7 89 30 75 bf bf 1b 27 7a f9 0a 3f 53 3f
       -0.12288192145177214 0.0011746985600517626
0006e0 9f 2b 0e 1e 77 52 bb bf e9 4f 2b 3e 60 28 bc 3f
       -0.10672707065366048 0.10999108808329051
0006f0 2b bd 12 7f 9b be a0 3f e1 5d 7f 34 cb c7 be bf
       0.03270421911417495 -0.12023611098935973
000700 98 84 68 9d fe 0e a3 bf 60 60 23 6b 21 5b 6f 3f
       -0.03722377463805876 0.0038276341157193333
000710 82 b1 af ad c6 68 b8 bf c5 5b e1 40 14 5b 9f 3f
       -0.09534875622165909 0.030620876750926635
000720 be 50 0c da 64 29 ad 3f c8 f2 c1 9b b7 b2 a1 3f
       0.05695643579216057 0.034566629184131836
000730 97 d0 91 92 53 57 8d 3f 4e 27 23 c9 1c 13 b5 bf
       0.014326718244980703 -0.08232288275317254
000740 be ac 6a 00 a8 6d 9c bf 85 97 2e fd 59 cf 94 bf
       -0.027762055421288727 -0.020322233274462604
000750 b3 20 9b 72 68 2f b3 3f be 5f 13 f8 e6 1e b4 bf
       0.07494213865277537 -0.07859653049979351
000760 c9 6e ec 89 91 dd 92 bf 35 82 6a 26 ab 49 9c bf
       -0.018423341792284362 -0.027624773235063144
000770 48 4f 23 a6 af 2d b9 3f 9c dc d8 78 4c 7c b5 bf
       0.09835336500264902 -0.08392789793366479
000780 52 b4 7e 1c 15 c1 bb 3f 22 3a f1 32 19 dc bc bf
       0.10841495462109776 -0.11273343557079632
000790 e4 73 c3 ef 2a c8 c5 bf cb ae 1c 16 9d e6 bd bf
       -0.17017113406373519 -0.11680013456196574
0007a0 e5 d9 60 1a 66 51 c5 3f 01 8d cf c1 1b d4 ae 3f
       0.16654659545902387 0.060212008865869755
0007b0 24 b8 18 80 79 f4 bf 3f 0e d3 79 be 77 5e 99 bf
       0.12482413651807228 -0.02477442836830606
0007c0 20 ba bd 75 8b 91 c2 bf e5 20 3e 0c f4 ad 8d 3f
       -0.14506667374685467 0.01449194586145137
0007d0 ec 9f 38 36 72 38 a9 bf 8b aa 64 02 c3 a8 b1 3f
       -0.049258774870679506 0.06898135002544785
0007e0 26 00 49 cf d0 17 5e bf 78 a3 f4 82 19 3e c0 3f
       -0.0018367327840138697 0.12689513105695105
0007f0 b8 27 5d f0 9b 82 a4 3f 29 8e d5 96 f3 d0 b0 3f
       0.04005896863107189 0.0656883471725044

net.4.bias f8 [64]
000000 5d 8b 89 61 6e 42 af bf 0f 7a f5 79 d1 dd 9e bf
       -0.06105370464935931 -0.03014304453733457
000010 bf 48 0f 4a 41 56 a5 3f b2 55 3a d3 c3 10 b2 3f
       0.04167369870232695 0.07056831271105216
000020 2f 19 c4 77 6b d3 ab 3f 8e 70 5b 62 dd ee b3 bf
       0.05434738003718775 -0.07786353732393733
000030 6e f2 ba 36 04 41 b7 bf bc 04 a9 5a a0 43 83 3f
       -0.09083582245052366 0.009406330839853864
000040 0b a7 d9 2f c8 5a c2 bf 5a 51 3c 39 d3 92 b2 bf
       -0.14339544617114827 -0.072552873109378
000050 fd c1 b6 14 67 05 c9 bf 1e f0 a5 eb 23 5b b1 3f
       -0.19547737609310892 0.06779694083337559
000060 f3 26 13 42 fd 70 90 bf dd 74 40 9a 66 54 b1 3f
       -0.016056019933592357 0.06769410386955906
000070 92 33 1c ab c0 d3 ac bf 9f 06 96 0c ad 62 b1 3f
       -0.05630304421183675 0.0679119258620866
000080 49 1c 31 9e 5e d7 b2 bf bf 50 94 02 0a 65 c3 3f
       -0.07359877931695381 0.15152096868462725
000090 8c 47 b5 46 4c df 81 3f 33 47 57 3f 84 87 9d 3f
       0.008726688297119777 0.028837267271064348
0000a0 9d 0f 7d 74 63 75 63 bf b4 ce 97 f0 ae 4f a5 bf
       -0.00237531113444507 -0.041623560780775476
0000b0 bf 71 57 04 b1 07 9b 3f 1d 05 0a ec 5e a7 af 3f
       0.026396528139103866 0.0618238127835957
0000c0 70 5d c8 06 57 dc 82 3f b2 3f f7 63 d1 25 a9 3f
       0.009209327597132527 0.04911665292058788
0000d0 7d a9 26 5b 62 e7 51 3f d4 eb bd 35 6d 93 c0 bf
       0.0010927639492402657 -0.12949910282244892
0000e0 70 3e 29 96 29 77 b0 3f 5f af a6 b9 37 10 b5 bf
       0.06431827465098094 -0.08227871210573089
0000f0 33 e1 ec 65 35 d1 b6 3f 1e bb 01 97 96 fa a1 3f
       0.08912976969157142 0.035114961560671384
000100 c8 5a 67 df 66 57 b8 3f 27 18 45 8c 27 6a c4 bf
       0.0950836463374386 -0.15948957776180459
000110 b1 1e 91 20 71 df b2 3f f3 b3 88 9e 24 b6 97 3f
       0.07372195286836349 0.0231557580720398
000120 38 8e d1 5c 9f 87 c0 3f 16 a6 05 53 02 a6 87 bf
       0.12913887054593132 -0.011547105940468188
000130 4b ca a6 4c a2 c4 b7 bf 28 af fe ba d3 af bc 3f
       -0.09284414645552734 0.11205790820411876
000140 5b ff 04 a6 a4 0f a5 bf b3 82 ee 69 17 1e ce bf
       -0.04113497282605635 -0.235293318485693
000150 c7 54 88 ff 60 80 ae bf 5e 6a ff 1a 39 7a 76 bf
       -0.05957320327085252 -0.005487654751017061
000160 b9 57 e8 b4 57 4e ba bf 2d 5e 07 36 d9 b7 b8 3f
       -0.10275791327180074 0.09655530518590956
000170 ad d4 c8 02 4c 77 b8 bf 13 1e 3f d8 91 5f ab bf
       -0.09557032649975623 -0.053463513991626986
000180 60 cf 86 5f 1b af 97 3f 81 c1 cb d2 84 4e 98 3f
       0.023128917413216654 0.023737025609933852
000190 e8 60 58 86 4e e6 b0 3f 94 27 e9 b0 0a 8b be bf
       0.06601420192635354 -0.11930910891638141
0001a0 4e 2b 2b 22 1d a2 a5 3f c1 7c c5 9f 51 e3 bc bf
       0.042252455159163746 -0.11284361029310032
0001b0 26 3d 8f f6 69 98 a9 bf 1e 90 4d 72 84 a8 92 bf
       -0.04999095091590737 -0.018220967747211707
0001c0 b7 89 ec 56 75 e0 af bf 46 92 82 da 62 40 b4 bf
       -0.06225935636600204 -0.07910745463102228
0001d0 1d 56 7c af 30 77 b0 bf 5b 38 4f 1d 29 95 b1 bf
       -0.06431869777983264 -0.06868226018488725
0001e0 58 7e b2 4d 32 25 96 3f 92 76 c5 73 49 e9 c3 bf
       0.021626268379462438 -0.15555685189149365
0001f0 c3 0a b4 38 d2 69 b9 bf bf f6 de c9 7d 9e b9 3f
       -0.09927095302922866 0.10007463625421574
