so3_experiments/results/otcfm/model.pt (torch, 79227 bytes, 8 tensors)

net.0.weight f8 [64, 10]
0.3437949080703538 0.09771206450472196 0.2330302324728289 0.25739534868131597 -0.13491326768602924 0.2398134213956593 -0.06977836423794852 0.04664855481910063
0.33710055823147284 0.2761394739739632 -0.018633524293193662 -0.14884648902247616 0.046296203076630085 0.20109013625023867 -0.3105836867091033 0.2802086802341733
-0.04238870414399831 0.06499593629052616 -0.03441832069372123 0.03103528586000341 -0.026341027734400398 -0.15449077794310934 -0.13764081768881029 0.006343470327856931
-0.3998560546730388 -0.3327951357756649 -0.1095649511024025 0.31432824273342763 0.1419605363526276 -0.42098176431685963 0.18007104861167733 0.15043583946831734
0.4048436634867775 -0.0003833930160230804 -0.19418622882485104 0.3722750850716439 -0.0659184044693368 0.24424749728453624 -0.08126168412355092 0.011993717702408185
-0.1818139862921148 0.08412087718489951 0.27133730993274036 -0.25017595570419005 0.001118459870958242 -0.42160286721074397 0.05173285088931287 -0.1345026703763172
-0.3451291064886267 0.14282775477241885 0.1835756169300102 0.16685635705978302 0.17643751891973053 0.09263396386618429 0.05443812150890704 0.0891939965736801
0.06664145288798393 0.14169415620429043 0.25860358017826224 0.07446523592029008 -0.11679410388625888 0.25342372526133 0.050416325929698386 0.3283815667581159
0.1526374088816199 0.302708816992406 0.11340011020172493 -0.36169478266326593 -0.10388186870158551 0.04744149027905268 0.06556748022739002 0.1355489278354844
-0.16242646843510308 0.2153933920538898 0.16264688919951706 -0.1635400650584644 -0.1164100533623412 -0.285786819892322 0.03543886708787153 -0.14787501567616662
0.3069961114139045 0.046046740661704555 0.13874195722643148 -0.0049025458035655105 -0.2061467045662529 -0.29261472108577047 0.02320415449762591 -0.11611453155647064
0.08682370708161682 -0.3937367426295048 -0.408559851181131 0.06312057657066877 0.2566157498356957 0.023364086166236798 -0.0012524656571205805 -0.08199173190195942
-0.22400979242657013 0.024467162067495992 -0.16778626569327337 0.19645734374523277 -0.2218230542027579 0.08676780843363559 0.27399643244734917 0.19929346135436862
-0.056857529467979714 -0.2146474350856467 0.14064317427047351 0.08537142339449817 0.2615492786113345 -0.4151599486330679 -0.026947786067499407 -0.32249900665817227
0.04581924943264872 -0.26101450633442075 -0.09729721937530425 0.024388633838961497 0.03958503552121376 0.010809227152422435 0.15059385139969447 -0.2883123119269387
0.30540443958319546 -0.04500362285313586 0.14681625039171944 0.07217311882161981 -0.19806454382707017 0.211978406562155 0.06728317800590794 -0.23067962240312112
-0.2262068775741225 0.4542685281601393 -0.17578682826681047 -0.07670174865986877 -0.14827066876082012 0.18528237714796822 -0.255215937721528 0.2563947413214278
-0.06387658382025288 -0.38888238474671394 -0.13602026318770025 0.09996608299369737 -0.16595937854453174 0.2566679086325063 -0.07745397800772055 -0.07943251830658075
0.17971561300134342 0.04228909195722411 0.31110395690063614 -0.19824781939212185 0.14453267866162586 0.24189209770833991 0.0703188238891824 0.3126596626741797
0.13089856717340326 -0.036453480638732924 -0.05584640691283323 -0.16315830452102725 -0.10509558320381347 -0.15644153592733134 0.32384224785932875 0.1371066465740699
-0.07496062479233805 -0.2644164514788725 0.032106361811277094 0.29586027542764454 0.22766338076681095 -0.06949826659895826 0.38698416376241834 0.09042378052530645
-0.33687132041959855 -0.028050620116763913 0.2736046567322399 0.0011158322715900926 -0.030539549091231036 0.2557044064240113 0.11527926497030996 -0.08583012155750476
-0.10210989503662143 -0.12082577836988913 0.00019940067407056458 0.3191143081373869 0.2230436115698276 0.23643960575350945 -0.07694574641802543 0.06853245947224056
0.28814793759893575 -0.20331244627393177 -0.22829149690689676 -0.15785512864228493 0.16042346261179286 -0.22229237165146698 0.08004455931405784 -0.1196357383917287
0.24700892640782818 -0.35404522232837426 -0.1964945513176375 -0.1214423004625092 0.38931703969977055 0.272113603451711 0.08097137065470397 0.2688427797601509
0.17104361159518058 -0.15570811220266625 0.10842368810174065 -0.15073237686694044 -0.23256401671656612 -0.06641635976142134 0.20756703393015047 -0.20505935603752518
-0.0058332297006709515 -0.12967642636126284 0.326687291115857 -0.05748996126463444 0.19386484645096438 -0.18367701030663425 0.42446404550754563 0.3668973202212652
0.08246479682799444 0.14037949397980748 -0.2761746838854022 -0.26291164391547783 -0.3170286660166335 -0.036642301352133734 0.22731341488912285 0.22328594730651846
0.14966188651179446 0.058296850175064786 0.21778992441798453 0.35664241177010253 -0.35611171204632613 -0.08392932721559446 -0.2945960847765894 0.4207092320849371
0.00926987078918285 -0.25032843564894763 0.01491915520851455 -0.32145157576076033 -0.1263569996830327 -0.2010476818118653 -0.23541437872286564 -0.38571130617383464
0.022318543274493435 0.03687888163802327 0.19977371156526416 0.22047096475136288 -0.5622994555875477 -0.10658407892306421 0.1132162277842036 0.1171751703194474
0.3164941013429642 -0.05858649312331953 0.17756590194314884 0.30202679642299357 -0.2833422169612752 -0.3769922469006541 0.14384163325782462 0.24845518146162646
00000000: 3d62 ac5b bc00 d63f bbf0 7869 a803 b93f
00000010: 229c b945 efd3 cd3f 26a4 2e57 2a79 d03f
00000020: ca05 4184 d644 c1bf f8a2 04c9 34b2 ce3f
00000030: 3bd0 5eb0 fedc b1bf 3818 b5c2 51e2 a73f
00000040: 3d52 4438 0e93 d53f 8694 76e6 44ac d13f
00000050: 8440 cba5 aa14 93bf 32ec 3cd9 660d c3bf
00000060: 8244 49cc 22b4 a73f 4919 5f53 52bd c93f
00000070: a28c 4566 9ae0 d3bf 654f 6a63 f0ee d13f
00000080: a05d 09e4 f8b3 a5bf 229f bddc 92a3 b03f
00000090: 258a 8633 479f a1bf 0cb4 29c7 b6c7 9f3f
000000a0: 622c a672 24f9 9abf ea4d 6693 5ac6 c3bf
000000b0: c3b8 48dd 369e c1bf 46e4 9e59 9cfb 793f
000000c0: 1969 7bd9 3d97 d9bf b828 1bf8 834c d5bf
000000d0: e8cc c5d9 720c bcbf 3ef3 af34 f41d d43f
000000e0: 0b84 7a4a c32b c23f bc02 7d7f 5df1 dabf
000000f0: a42d 5f70 910c c73f 4ed4 5449 7b41 c33f
00000100: 57c9 aa65 f5e8 d93f ee1f 2077 4420 39bf
00000110: 8872 1127 18db c8bf 9de4 dfe0 5ad3 d73f
00000120: 2e7a 664f 07e0 b0bf 6dc4 7b82 8043 cf3f
00000130: 2e81 bad3 90cd b4bf 367c 508a 2990 883f
00000140: 453e 8a42 ae45 c7bf 8b83 6b20 f288 b53f
00000150: 8920 162a 975d d13f c0ae ff02 e202 d0bf
00000160: 9171 5424 2953 523f 7d7a a497 8afb dabf
00000170: 5c9a 656d ba7c aa3f 76d7 3e2d 6237 c1bf
00000180: ee0b 5164 9816 d6bf f1b4 da0b 2e48 c23f
00000190: 7759 87e3 677f c73f aac9 5992 8c5b c53f
000001a0: 8a18 c62e 8195 c63f f9d9 4d05 dcb6 b73f
000001b0: f1a6 123f 50df ab3f f092 48f2 6ad5 b63f
000001c0: 8e39 b60c 6a0f b13f 5a43 77bb 0823 c23f
000001d0: 28a0 df07 f68c d03f 2871 f758 2710 b33f
000001e0: a89e 8ee8 37e6 bdbf 23c9 0125 1838 d03f
000001f0: 64e5 1a2e 2bd0 a93f 5a76 751e 3404 d53f
00000200: 6b78 a563 9f89 c33f ed5d 4ccd 945f d33f
00000210: 59e0 ad24 ca07 bd3f 240b abdf 0126 d7bf
00000220: 357e b88c 0098 babf 55ae 7142 404a a83f
00000230: 01fd 41c7 07c9 b03f aed7 07d2 aa59 c13f
00000240: 5f7e f7f8 63ca c4bf eaae 52bb 0292 cb3f
00000250: 5b3b f4fe 9cd1 c43f 3883 817f e1ee c4bf
00000260: 36eb 1d9c 0ccd bdbf f22e 44cd 544a d2bf
00000270: 58a5 4c0e 0b25 a23f 72c0 1c8a 91ed c2bf
00000280: ae66 a104 d3a5 d33f d075 753a 7093 a73f
00000290: 516e 6fe4 4bc2 c13f 6c98 4b1e b114 74bf
000002a0: 4226 25e5 0363 cabf 160f 5918 33ba d2bf
000002b0: de66 cb72 d4c2 973f 4e1a a093 aeb9 bdbf
000002c0: eada 6e16 143a b63f 5bf2 3498 fb32 d9bf
000002d0: 7b05 d237 d825 dabf 2c60 138c ab28 b03f
000002e0: 7eb3 4b77 646c d03f 0d8d f047 c1ec 973f
000002f0: 5c3a 59c2 3885 54bf 61b2 0fff 68fd b4bf
00000300: db59 3a56 5aac ccbf 1f91 9f73 eb0d 993f
00000310: 086f ef35 057a c5bf 5eef 38a5 8325 c93f
00000320: ef5b a6a5 b264 ccbf 3d6c 9143 6a36 b63f
00000330: 1c40 2555 2889 d13f 776d 69b9 7282 c93f
00000340: 0e52 311b 6e1c adbf 3a7b ee30 9179 cbbf
00000350: 22db f274 9800 c23f ed09 7ecf e6da b53f
00000360: 9065 7b2f 39bd d03f 7b3c 7f08 fb91 dabf
00000370: 8b24 704f 3398 9bbf afb7 a5df d2a3 d4bf
00000380: 1355 aee3 9e75 a73f 1d3a 1f30 76b4 d0bf
00000390: 5a6b 3577 78e8 b8bf 9e09 ee82 55f9 983f
000003a0: 4400 f361 7d44 a43f 5de2 eae8 2523 863f
000003b0: 7fc4 5ec9 a846 c33f 9da9 b07b b573 d2bf
000003c0: b908 0410 bf8b d33f 2023 b600 b70a a7bf
000003d0: 8915 faf8 dfca c23f d83a fd00 f079 b23f
000003e0: a401 1ed1 2d5a c9bf 4642 d2c1 1b22 cb3f
000003f0: dc37 1b69 7839 b13f b89a 09ed e886 cdbf
00000400: 2cd3 a7d2 58f4 ccbf cc30 034e bc12 dd3f
00000410: 489c 3ccb 2e80 c6bf 2747 0ace b9a2 b3bf
00000420: 9e52 a484 88fa c2bf ab15 303b 55b7 c73f
00000430: d5a4 7b3a 7555 d0bf e4e1 357d c568 d03f
00000440: f2f9 7c3e 375a b0bf 6b91 1ef1 72e3 d8bf
00000450: 9d03 feaa 1c69 c1bf 79ca 2a91 6097 b93f
00000460: 8218 a82b 283e c5bf e098 603c 3f6d d03f
00000470: cefe 7c1e 06d4 b3bf 939d 5d84 b055 b4bf
00000480: 34ef 35d4 eb00 c73f e51c de75 eaa6 a53f
00000490: dfd7 2292 20e9 d33f eb6f 653e 2f60 c9bf
000004a0: ef08 07fc 0b80 c23f 5ab9 68fc 51f6 ce3f
000004b0: 56b0 e518 6a00 b23f 13b2 7dac 9d02 d43f
000004c0: f62f 8dc4 48c1 c03f 6663 56d6 07aa a2bf
000004d0: 1a57 9476 e697 acbf 228b fe0e 5fe2 c4bf
000004e0: 357e d04c 8be7 babf 6c9e 45b8 4606 c4bf
000004f0: c39c e7d5 d4b9 d43f 3cc8 8ce9 b58c c13f
00000500: 9387 f897 9e30 b3bf 7c12 e8fa 32ec d0bf
00000510: 3b2a f2bb 3e70 a03f 216d c9ef 5fef d23f
00000520: a9f3 71db 1224 cd3f bdd4 2b6e a3ca b1bf
00000530: d97c db39 59c4 d83f 1a0a 234c 0326 b73f
00000540: 9c66 0aba 4c8f d5bf 53d6 2240 4db9 9cbf
00000550: 90b0 2c1b bd82 d13f 76b4 50c7 2348 523f
00000560: c460 5372 c245 9fbf ad30 c203 765d d03f
00000570: 8a53 f420 f182 bd3f 6de7 197d f6f8 b5bf
00000580: 8cc0 c7c3 df23 babf 6dc7 9c2e 70ee bebf
00000590: da33 74bf c622 2a3f 05b0 486b 5e6c d43f
000005a0: ea16 a36c b18c cc3f e160 182b a743 ce3f
000005b0: c085 6e68 b7b2 b3bf e3d0 25e0 578b b13f
000005c0: 006d 190c 0471 d23f b9e2 ce69 2406 cabf
000005d0: c8c2 95e0 a738 cdbf 6122 83cb 9834 c4bf
000005e0: 98e0 b68a c188 c43f 9458 3291 1374 ccbf
000005f0: 2703 7adc cc7d b43f f845 d39f 72a0 bebf
00000600: caef 5e0e fd9d cf3f 8b25 cd4a ada8 d6bf
00000610: 682f e0c3 bb26 c9bf 4465 d6b4 d716 bfbf
00000620: 9d4e 5204 92ea d83f c2cb e72c 4f6a d13f
00000630: b2ce df2c 8aba b43f 207a b558 b834 d13f
00000640: f9d9 fece c1e4 c53f d9f0 d050 3eee c3bf
00000650: e138 82a2 a7c1 bb3f f1c1 8bd2 324b c3bf
00000660: 0814 035f a8c4 cdbf 9f3c 189d a900 b1bf
00000670: 8696 3a7b 8e91 ca3f 42c2 f58d 623f cabf
00000680: 3504 b6ac 95e4 77bf c752 24b5 3c99 c0bf
00000690: c921 d7cf 71e8 d43f fdb6 f5fe 526f adbf
000006a0: 0dec ac33 90d0 c83f 66a3 2570 ba82 c7bf
000006b0: cf18 723e 6b2a db3f aec8 d5e5 3e7b d73f
000006c0: b790 72b5 691c b53f fe0d d68b f4f7 c13f
000006d0: 1757 d194 d8ac d1bf 5ab1 165c 8bd3 d0bf
000006e0: 90e6 1b9a 324a d4bf 5d49 ea9b c7c2 a2bf
000006f0: c507 7221 9b18 cd3f 863f ab48 a294 cc3f
00000700: 184e 03e6 1e28 c33f ed65 ecb1 15d9 ad3f
00000710: dd03 634d 8ae0 cb3f 73d3 bab1 3ad3 d63f
00000720: df89 3dc7 88ca d6bf 7af6 9073 647c b5bf
00000730: 3c49 6989 a9da d2bf 6986 3b6a e6ec da3f
00000740: 4480 05ff 14fc 823f 9fbf 178f 6105 d0bf
00000750: 5cda a21d ef8d 8e3f ecf7 48a1 a992 d4bf
00000760: 0031 a156 772c c0bf 15c7 2831 eebb c9bf
00000770: 14ba cff0 0e22 cebf 34b3 6d79 7eaf d8bf
00000780: 3b4f d515 acda 963f 47c3 18ed c9e1 a23f
00000790: 05fd e25a 2f92 c93f dd8e a97f 6438 cc3f
000007a0: f1d3 896d 5bfe e1bf 38b4 3f1d 1849 bbbf
000007b0: 08ab b51b bdfb bc3f 9bdd 6c24 31ff bd3f
000007c0: b646 a979 7041 d43f bf6a e77f 0cff adbf
000007d0: 3983 ddbe 7aba c63f 0ac1 4933 6854 d33f
000007e0: 2530 db64 4722 d2bf df2a d216 a420 d8bf
000007f0: 74a2 5213 6769 c23f 8f20 731f 61cd cf3f

net.0.bias f8 [64]
-0.2034722853859481 0.16320955386347305 -0.22528213309740835 -0.14882078445028024 0.17312041603227862 0.08209643702367599 -0.1423125791609711 0.0721074854275355
-0.21171806969149382 0.20082878168347443 0.3264223613270575 0.3059615538817027 -0.18255276609275659 0.21267991810075368 0.26375658522990447 0.22175995449377447
-0.3207096538977394 0.011449854557520752 -0.25198862587109216 -0.3807816681986454 0.2699408425995191 -0.2713785292574712 0.1432899830163946 0.004387775316830861
-0.12488637469948674 0.16778188609582673 0.12935648099336425 0.05115492442718997 0.21843538845448823 -0.12062109668936863 0.022385195339039484 -0.0940355921829106
0.005478340621971534 0.36749535415730666 -0.24020140048088365 0.2555006664208351 0.08431179363268178 -0.45205730318647885 -0.27885360503762097 0.11254547267634837
0.2418280660644605 -0.022890299935836907 0.1249495246436318 -0.15886895488087563 0.18385276436542491 -0.007286591911088713 0.10852103362865294 0.060362533611045086
-0.17889724027380777 -0.2858780426061966 -0.10560694589236286 -0.09453982563924615 0.23890456447453076 0.006997884514760974 0.16353062760743764 -0.29743816858706856
0.029995988468531822 -0.26738140460088283 0.0841869309085869 0.05471851140214164 0.13194927039509657 -0.11124383905752573 -0.1706356270301804 0.14840690199451959
00000000: d900 b03d 610b cabf d182 1ef8 0ce4 c43f
00000010: f663 0381 0bd6 ccbf 18ea 1639 8f0c c3bf
00000020: 5a74 904e cf28 c63f 0983 22a8 4504 b53f
00000030: dd23 a770 4c37 c2bf 8643 b5db a275 b23f
00000040: 220b a6e4 9319 cbbf b188 b6ec c1b4 c93f
00000050: b64c a59d 1ae4 d43f 1956 f0c4 df94 d33f
00000060: 3fd4 1498 e35d c7bf ef1c 6176 1839 cb3f
00000070: 61b1 ea4c 63e1 d03f a77d 0e54 a162 cc3f
00000080: 3025 c0c8 8186 d4bf 6bb4 f276 0573 873f
00000090: f823 c5e6 9420 d0bf 9d16 f512 ba5e d8bf
000000a0: a074 b4f4 b546 d13f b2d5 ff0c 445e d1bf
000000b0: fb2c 737f 5357 c23f edc8 ce77 eaf8 713f
000000c0: 4ae0 0caf 8df8 bfbf 6246 d278 e079 c53f
000000d0: cf31 b2cf c08e c03f 5465 e36e fa30 aa3f
000000e0: 16bd d9d8 b0f5 cb3f d20d 7d31 06e1 bebf
000000f0: 7f3e 9507 25ec 963f 82e9 1571 b712 b8bf
00000100: a767 ecdc 7470 763f 8b67 e23b 0b85 d73f
00000110: d767 c263 ebbe cebf 698e 9877 1f5a d03f
00000120: bdc8 512c 7595 b53f 06a6 46c1 81ee dcbf
00000130: b587 80ca bcd8 d1bf ee30 75b4 c7cf bc3f
00000140: 803a 80d9 38f4 ce3f 7fee 7a06 8e70 97bf
00000150: cdc1 fe29 b1fc bf3f 5d12 c862 d155 c4bf
00000160: da45 1dc5 7c88 c73f 009c 519f 8bd8 7dbf
00000170: 67f9 5cd2 08c8 bb3f 36ba 8687 d6e7 ae3f
00000180: 560b 29d2 1ae6 c6bf c7d6 e86a d34b d2bf
00000190: 5890 d68a 0e09 bbbf 4a44 4a13 c333 b8bf
000001a0: fb40 a4bd 6c94 ce3f 4903 1d52 d0a9 7c3f
000001b0: 3cf1 bb54 92ee c43f 5378 aa19 3a09 d3bf
000001c0: 6724 efb5 44b7 9e3f ff6f 14e5 c61c d1bf
000001d0: 1ac4 0053 468d b53f 2a7f ea91 1004 ac3f
000001e0: eefb 89b4 b6e3 c03f 0531 a2ea 797a bcbf
000001f0: 1b44 d062 63d7 c5bf 0198 4853 fffe c23f

net.2.weight f8 [64, 64]
0.13209044915127632 -0.0592606579135766 0.13560325484587454 -0.06428026000288489 0.04374772393179574 0.06564074807694324 -0.20074229978674213 0.10143106493195761
0.17216676657183502 0.0061950669455731015 -0.011644216421198342 0.002142350345625784 -0.033403898323744664 -0.014435218022328418 0.09739890634156995 0.02992453546250723
-0.08528950493006897 0.27100440210943255 -0.041526098331565404 -0.001848576933180827 0.06611525805834267 0.14129560195511795 -0.18221371842152895 -0.011529360515836293
0.07033985983983462 0.06685308625392897 0.0010026850910200655 0.05642833644192648 0.07354896701876508 -0.08250113554210038 -0.056505198872016986 0.22192600377727742
-0.056320289020714585 -0.1350202660635646 0.11847828013254968 -0.08997318090639526 -0.037804985157767076 -0.12188705959412414 -0.06125161442592656 -0.06811760403596838
0.0490938370466086 -0.0460968379620542 -0.106297491537852 0.02607803708745482 -0.12115428421152993 -0.13630963512641303 -0.17832641881261357 0.02468183872391369
0.09591730196679052 -0.1124245210446864 -0.033330197811249164 0.0802535461979086 -0.2077485209433422 0.025915873293023927 -0.017911122569435722 0.055067141002549905
-0.03219907008471643 0.11692922237520713 0.024640658532481388 0.14925292368468754 -0.10413889140331217 0.010272221563460247 0.12935394018055216 0.15118714303726324
0.15776174106174476 -0.0022590972400556276 0.17903257527398334 0.0774090028845718 -0.05515923505038609 -0.03701869855595775 0.13363447502608813 0.1953135239282638
0.215783095387083 -0.11142923048278597 -0.1174196768383115 -0.012007061777225856 -0.006901759463218745 0.016617910804367707 -0.04348530107822845 -0.07636616231354493
-0.042201266532299095 0.09068023647956386 0.2080756710079248 0.03794148937712183 -0.04347117358355651 0.13862544622037834 -0.15805385604459757 0.024032384969018508
0.06300150835975617 0.06050027218819085 0.008251135211681762 0.08868571577945315 -0.02162278915626484 0.04401212752803798 -0.2099382604532355 0.14202287248573878
-0.04259100793163845 0.05215274973828217 0.006089192077523172 -0.0007102491874409458 -0.05711021602998251 -0.10271273321915703 0.17791244204264883 0.043189305827482975
-0.03635527145359342 -0.08594452877901936 -0.15846137803080154 0.16527604562382459 0.07792247575468636 -0.0769126248379247 0.055308392999334856 -0.05074311594488293
-0.05575745850060669 -0.08872483921267603 0.0604336738652525 0.031241267022257296 0.027277560624967275 0.052463824230251956 0.01795975716449864 -0.05889712521220488
-0.011182090141872623 -0.11085487907126336 -0.1745560732024996 -0.019846765318252295 0.03865571934401592 0.006611914427643979 -0.02919403358128666 -0.062186577333915465
0.10092645469624974 0.09453051267278695 0.042461326174020084 0.12968978110674476 -0.09771281737223933 0.05391577727627042 0.0643020833091458 0.05277334466989788
0.050793588882019625 -0.008544219496775064 0.1292685280666341 -0.08400636372646834 -0.15780925651864602 -0.012238443039909275 0.096837797659895 -0.025683093384148956
-0.01661386209923731 -0.005532949828131271 -0.01128332803823728 -0.06116379788086183 -0.012381340306361168 -0.05102428495535354 0.11335001401199099 -0.01565276631290406
0.06494690623404632 -0.034892831021248086 0.003934652450305624 -0.061230937303157505 0.007780706562115192 0.04463364661225737 0.07029196400408777 0.033964787113418875
-0.16269929218046736 0.08161078712001586 -0.07366980846932737 -0.0007404176017384723 -0.03023015254166606 0.1553624986071935 -0.024219132827224963 -0.10685505047804912
-0.05530806010649717 -0.06516985638476684 -0.043571645725547774 -0.05733036866019551 0.10591406333435785 0.03683269460502039 0.12576557396575305 -0.05235064368810184
0.12240863744338934 0.089296467820716 -0.018459502101196408 -0.11433683395644606 -0.050431873301774004 0.08529394091874076 0.09068644586268293 0.07344183387937385
-0.2168968536883891 -0.03360639745859878 -0.07318324214149077 0.11658903794407306 0.0848797431555316 0.0749584487294944 -0.06214836443005713 -0.05161278979575059
-0.16010996056747825 0.08880853973644168 0.04409303070766112 -0.20793763785559063 -0.016551750741249822 -0.005294473258750902 0.033329966514392816 0.10405427066779611
0.13673710787022386 -0.04425092782089721 -0.1923987176620612 -0.09871218646032659 0.17784826187500952 -0.009662077884670462 0.13438661084187045 -0.0493584913639002
0.1238868973208566 0.1296522831441787 -0.057650217161123736 -0.10785561748048397 0.053234770358368655 0.03865973765493994 0.02642358742256902 0.06692994318507549
-0.0392329760681052 -0.004492636732470435 -0.10077592982303096 0.03308633808545755 -0.054883689012725626 -0.09904147752585855 0.0005792613782419391 -0.01481087668284931
0.14974493592176316 0.06941715026013466 0.24958151319703267 -0.05506451270039429 0.1494865934204435 0.10066691709772964 -0.10774848029717457 0.06862135249241953
-0.08466806677125636 -0.2199550374073824 0.1683902000549819 0.08593916238598626 -0.0559115069323132 -0.04056884213200736 -0.057727888044318554 0.011600516503493846
-0.20309363335871775 0.09985375085237642 -0.03813765206451913 -0.0701551315379572 0.051179140732962834 0.009374345959504055 0.028056054998814823 0.019207096308596114
-0.08674846063168082 -0.011682965206093984 -0.14608186915074697 0.03561430271158751 0.025458994073844915 0.04569455222337876 0.06115972760314877 0.0011303666009069113
00000000: ccfd 9bff 56e8 c03f 4044 5bb7 6957 aebf
00000010: d8a7 658c 725b c13f f0a2 7dce ab74 b0bf
00000020: d47c 1f07 1a66 a63f a383 4602 d5cd b03f
00000030: 6202 4176 ecb1 c9bf ce63 aee2 62f7 b93f
00000040: 1b2a f183 8f09 c63f 4c22 d89e ff5f 793f
00000050: 2295 bb45 ecd8 87bf ab22 7995 d58c 613f
00000060: 4d02 b8d5 501a a1bf 1141 882a 3690 8dbf
00000070: c438 677d 22ef b83f b049 a394 89a4 9e3f
00000080: 8bde 5d72 88d5 b5bf 7273 08d9 2258 d13f
00000090: 9173 87a4 e842 a5bf 78bb 375e 7e49 5ebf
000000a0: 048f 20f7 edec b03f 79a1 bb6a f915 c23f
000000b0: f262 c074 c752 c7bf 38de df92 b49c 87bf
000000c0: 4208 9e05 cb01 b23f 22e8 18ab 481d b13f
000000d0: adbf 24eb 906d 503f a2e8 2bc7 2ce4 ac3f
000000e0: b50b 00e8 1ad4 b23f 6143 095f cb1e b5bf
000000f0: ef27 6bda 3fee acbf 0f7d 2d40 1268 cc3f
00000100: 1bf6 e34e 03d6 acbf 3626 8515 5848 c1bf
00000110: 00a4 74b2 9754 be3f 3f93 827d 7b08 b7bf
00000120: 5eba c1cd 2c5b a3bf 6f2a c386 fd33 bfbf
00000130: 85b7 9221 5f5c afbf e3c9 9dc1 2770 b1bf
00000140: cbc5 19d1 d322 a93f 2ef8 fd36 019a a7bf
00000150: 0c4a cdf9 4f36 bbbf e0eb bc71 33b4 9a3f
00000160: 9674 7598 f703 bfbf 90b2 7f18 9872 c1bf
00000170: 8c0f 686c 66d3 c6bf 1857 7f28 3246 993f
00000180: 5263 114b 098e b83f c3c7 2779 dac7 bcbf
00000190: d515 23db a710 a1bf e1db 4e14 7f8b b43f
000001a0: 3d3c 9fe7 8097 cabf e398 f6d0 b089 9a3f
000001b0: 8076 ae16 4b57 92bf 4a5e 61a3 c231 ac3f
000001c0: ad70 f381 657c a0bf 8b58 0cd2 12ef bd3f
000001d0: b415 329a 663b 993f 5f70 0745 b81a c33f
000001e0: d4a4 d1ac d8a8 babf 5fed 603d 9a09 853f
000001f0: 4194 577f ab8e c03f 25da 75ad 195a c33f
00000200: 93c9 3567 8931 c43f 7bf8 7698 ab81 62bf
00000210: 9d36 dc17 8aea c63f f321 ce8f 13d1 b33f
00000220: 0d42 3acd d43d acbf 01d2 4667 1df4 a2bf
00000230: 7376 ed39 ef1a c13f 1a84 de96 0800 c93f
00000240: 3acc dbcc c79e cb3f 80f4 bd44 a086 bcbf
00000250: 7c6c ed47 370f bebf 72e0 3b8d 2897 88bf
00000260: bcc0 def2 0445 7cbf a3fc ba1d 4904 913f
00000270: 6fb4 f993 b443 a6bf 3c5f a899 bb8c b3bf
00000280: 2646 3687 679b a5bf 04c2 12ea d136 b73f
00000290: e040 093d 39a2 ca3f f091 1220 116d a33f
000002a0: e860 b889 da41 a6bf a578 f486 7abe c13f
000002b0: 3def 5bd7 1b3b c4bf 0480 f20d f29b 983f
000002c0: 91fa 00ea dd20 b03f bd0e e544 e4f9 ae3f
000002d0: c8c4 1c9f f8e5 803f 6f25 e568 1bb4 b63f
000002e0: 490c 19d1 4824 96bf d379 b8f0 c188 a63f
000002f0: 0cb3 69c5 41df cabf e51b 4e34 ce2d c23f
00000300: 9812 5714 7dce a5bf 4a77 0be5 c3b3 aa3f
00000310: bcf8 4f0d fbf0 783f eed9 1a84 0046 47bf
00000320: b887 3bdc 8c3d adbf 0c1e 0fb6 614b babf
00000330: 42f5 0fbc d5c5 c63f 57c8 21a0 e81c a63f
00000340: 925b dc7b 289d a2bf c742 60ec 7500 b6bf
00000350: 2923 2962 7648 c4bf ac1d 62f5 c327 c53f
00000360: 005f fd34 baf2 b33f 4712 54b8 8bb0 b3bf
00000370: 2dbf 40b6 6151 ac3f 14f8 f56e 00fb a9bf
00000380: 464f 89d9 3d8c acbf afe4 c2ca abb6 b6bf
00000390: a822 a899 29f1 ae3f 08b5 95f0 b5fd 9f3f
000003a0: af10 321b a6ee 9b3f 3d84 95d2 89dc aa3f
000003b0: 2b99 a9e6 0a64 923f ebcb 3a95 c327 aebf
000003c0: 6ca0 aebb a2e6 86bf 718e 3640 fc60 bcbf
000003d0: 9288 dc78 da57 c6bf aea3 e4df b552 94bf
000003e0: 1295 c5b4 aeca a33f 08df b043 1815 7b3f
000003f0: 163b e16d 0ae5 9dbf 8776 cc47 ebd6 afbf
00000400: f9bb 38ee 50d6 b93f 145b 67d4 2633 b83f
00000410: be3f 86ae 7dbd a53f 874b 3dbc ac99 c03f
00000420: a687 030b b503 b9bf 44ae 4748 d99a ab3f
00000430: 7aa0 e0f0 1976 b03f db5d ea9a 1b05 ab3f
00000440: 3882 3006 9e01 aa3f f4cb 77ba a17f 81bf
00000450: 4f60 3902 df8b c03f 936e dce8 7081 b5bf
00000460: ea77 e0fd 1733 c4bf 3a09 e204 7810 89bf
00000470: 2a46 f7a5 5cca b83f b983 9438 ab4c 9abf
00000480: 7d83 8169 3903 91bf a4e7 fee8 b7a9 76bf
00000490: 3e6c 50a7 b61b 87bf b5e5 317f dc50 afbf
000004a0: bb5d 925d 635b 89bf 07bc 5ee6 da1f aabf
000004b0: b2c1 2eab 8104 bd3f 0b98 9f5d 4707 90bf
000004c0: 5969 4046 5ca0 b03f 52c5 3320 79dd a1bf
000004d0: d1e4 8539 c81d 703f cbe3 7052 a959 afbf
000004e0: 27bd 9583 a9de 7f3f 9671 00a9 38da a63f
000004f0: e0b4 9176 a7fe b13f ef47 bc23 d563 a13f
00000500: a2ac 7f95 54d3 c4bf c568 aecd 71e4 b43f
00000510: 690e 144a 06dc b2bf 85bf 42b1 1243 48bf
00000520: 2104 1432 a7f4 9ebf 8f78 4519 ebe2 c33f
00000530: b9bd b87d e6cc 98bf d934 3743 da5a bbbf
00000540: b5a7 b98a 5651 acbf 0b8b dbc1 f8ae b0bf
00000550: 0727 d9d2 054f a6bf b523 edf4 675a adbf
00000560: 5221 351e 2f1d bb3f a315 8125 bcdb a23f
00000570: 50a2 9219 1619 c03f a240 211d b4cd aabf
00000580: 2639 9126 2c56 bf3f e133 f020 22dc b63f
00000590: 42e2 4c37 0ce7 92bf cc34 92c2 2d45 bdbf
000005a0: 2fa7 03dd 34d2 a9bf a0fe cade d2d5 b53f
000005b0: d8b2 2b17 3a37 b73f 9f90 ab82 15cd b23f
000005c0: f134 99ae 46c3 cbbf 48c8 0a94 db34 a1bf
000005d0: 6aea 9c0f 23bc b2bf c1b9 0a79 c7d8 bd3f
000005e0: b825 f2c8 adba b53f 5721 da15 7a30 b33f
000005f0: 6337 7411 e9d1 afbf c3c5 74d8 fd6c aabf
00000600: 7f59 33b2 7b7e c4bf 4a06 c60d 28bc b63f
00000610: 4fea bd99 5c93 a63f 993f 1955 b39d cabf
00000620: 8237 8030 f1f2 90bf 9e21 ef57 a8af 75bf
00000630: 53eb 4f18 a010 a13f 35fe 86f9 4ca3 ba3f
00000640: dce2 39ff 9980 c13f ece7 9dbf 0ea8 a6bf
00000650: 6150 136c 85a0 c8bf 5c52 90ac 3345 b9bf
00000660: 7aa9 335a bbc3 c63f 4d61 3524 b6c9 83bf
00000670: bd05 4b99 9433 c13f d92d 6024 8445 a9bf
00000680: 8b5f 653c 0db7 bf3f 8a5d fa2d 7298 c03f
00000690: 21ef a04a 5484 adbf a6c0 c4fd 6c9c bbbf
000006a0: e005 667b 9641 ab3f 95c0 cc89 35cb a33f
000006b0: 64ae 4aef c80e 9b3f a760 1a1d 5222 b13f
000006c0: 4547 463a 5816 a4bf db98 6bfd de66 72bf
000006d0: 585c d08a 73cc b9bf 1cfa 0a48 b1f0 a03f
000006e0: aa77 c902 b719 acbf ffcb eb42 c85a b9bf
000006f0: 2304 7356 32fb 423f 43cb d237 2a55 8ebf
00000700: 7b46 4391 d72a c33f 8317 2686 52c5 b13f
00000710: 8708 6f7a 49f2 cf3f 35ce 6f72 6a31 acbf
00000720: 5133 f76e 6022 c33f fd50 b99c 4ec5 b93f
00000730: caef 1187 6795 bbbf 8121 c340 2b91 b13f
00000740: a74f cc71 ceac b5bf 37a9 2096 7c27 ccbf
00000750: 5efd 1961 cf8d c53f c4b8 e4e3 1b00 b63f
00000760: 141d 7ddb 6ea0 acbf 1a1a 6374 70c5 a4bf
00000770: d85b 6f7e 828e adbf 1664 fef7 02c2 873f
00000780: cb97 a6e0 f8fe c9bf 4d3c 4bf2 0390 b93f
00000790: 3f07 ba40 c786 a3bf 8323 9acb aff5 b1bf
000007a0: 33f4 5eff 2634 aa3f 4a28 8a6a db32 833f
000007b0: 25e1 b2fa b9ba 9c3f ac75 fc69 06ab 933f
000007c0: 9e33 64a9 2535 b6bf ab05 d80b 3ded 87bf
000007d0: cd3f 4589 cfb2 c2bf b20c d5b2 093c a23f
000007e0: e8b0 be2b ec11 9a3f c83e cfbe 4665 a73f
000007f0: bb8c c6eb 5350 af3f ae31 56e5 1985 523f

net.2.bias f8 [64]
-0.04126202574954088 -0.17492350570465723 0.10755371706804363 -0.0008875568849948526 0.09222332124837099 0.1659318679767838 0.018663235821544846 -0.07428253092166594
-0.0711321319882579 0.07414039176985213 -0.06834262133976722 -0.01062041726185927 0.0035731592156093036 -0.07835161573574148 0.06666945330336872 0.02206779902639497
-0.09673165664938212 0.09249086478493874 -0.03008650574883317 -0.06305323048911789 -0.10071421983668392 0.11996876154128686 -0.002290113666773317 0.06617126719523697
0.14311638479017766 0.09621499510188088 0.010772678307560646 0.1291962184560745 0.10032919146183616 -0.08571934889022588 -0.03159478374309206 -0.06004815096336639
-0.028136700628483283 0.0946134228210238 -0.1269181043564732 -0.006895843927661486 0.01763733016836042 0.08884136277831758 0.030871795706616616 0.06334090947605361
-0.024878365953826226 -0.04498636955821005 0.10099754555598021 0.02031845668904408 0.04235046230387604 -0.03675171832667858 -0.06540638710185565 -0.08528233496437632
-0.13856135429211833 -0.09206865823991543 0.037860693651796104 0.06210312217245807 0.06227967967221363 0.06943349064038185 -0.07431841411695192 0.04593350515426485
0.14688460852845464 0.0792714036826392 0.039048867259873096 0.010966075884807304 -0.05799644906898563 0.0591533137188658 0.06416368087435909 -0.01700830177507605
00000000: 046d 52d6 4b20 a5bf 59ce 26b8 e463 c6bf
00000010: 11d8 5ef1 a388 bb3f 7ea7 aee5 5d15 4dbf
00000020: 92b4 b094 f29b b73f 6f88 2965 413d c53f
00000030: 44db f68d 741c 933f 8100 f910 2e04 b3bf
00000040: 3396 9524 b735 b2bf 0ad2 f65d ddfa b23f
00000050: 29c4 93eb e67e b1bf 4cfa 7946 28c0 85bf
00000060: 07a3 2e3f 7545 6d3f 1a7c 2cfb d90e b4bf
00000070: e185 94d1 3f11 b13f d8c7 73ec f098 963f
00000080: 0108 cce5 67c3 b8bf 1119 6e37 7bad b73f
00000090: 56f7 f738 ffce 9ebf 15a0 dbaa 4124 b0bf
000000a0: 7fd2 7038 68c8 b9bf f687 5cd3 45b6 be3f
000000b0: c878 b169 b7c2 62bf ecd5 89a4 99f0 b03f
000000c0: 4508 1940 a351 c23f cded 58c1 8ba1 b83f
000000d0: 2da0 2b68 fc0f 863f 3392 846e 8089 c03f
000000e0: 48a7 2984 2caf b93f ed30 1e08 b4f1 b5bf
000000f0: 1a32 cd05 312d a0bf 0557 2599 a1be aebf
00000100: 2114 1104 decf 9cbf 1f67 c7d4 9538 b83f
00000110: 739d bd39 da3e c0bf 5ead 5c02 d13e 7cbf
00000120: 9925 0c31 850f 923f e239 aabb 4ebe b63f
00000130: 2b00 b723 db9c 9f3f f6d3 b21e 1c37 b03f
00000140: a831 99e0 b679 99bf 475c 0914 7408 a7bf
00000150: f3a2 23a3 f9da b93f 9f44 f08b 5cce 943f
00000160: 0c9a 21b5 f5ae a53f e3dc 9108 1fd1 a2bf
00000170: f84e 8d15 79be b0bf 3038 9927 10d5 b5bf
00000180: 7b49 96e2 60bc c1bf 8b85 20c4 cf91 b7bf
00000190: 2ea1 1312 7a62 a33f 529f 6bfd facb af3f
000001a0: e586 cb46 1fe3 af3f 082d 8cab 64c6 b13f
000001b0: ee75 1f16 8806 b3bf fe3e dbac 9884 a73f
000001c0: 4c2e f566 1dcd c23f e12f 5376 214b b43f
000001d0: 8e6c a78f 36fe a33f 615b 53ca 6175 863f
000001e0: f422 12e8 b5b1 adbf c2bf bed7 5749 ae3f
000001f0: 3044 f2ee 076d b03f 5cad 89cf 9f6a 91bf

net.4.weight f8 [64, 64]
0.11966154914501735 -0.03162610732422637 0.09603310704236076 -0.13802020973277382 0.023363698787598943 -0.048158430991285105 -0.02589757094520882 0.05261976664907877
-0.14350289713078213 0.04351458397166505 0.09532406446757546 -0.10438609904473035 0.004838189644744121 0.0934181929507384 -0.16135264308979252 -0.01514216166551258
0.26525783612241677 0.0192928929505945 0.08931464676637456 -0.03126932129094343 0.033985911930360546 -0.3666021203593368 0.06468174278342688 0.011309742070492894
-0.12794507780744876 -0.07572387966981148 0.07514860680364906 0.18794459248375497 0.2980866291930136 0.24932600325197427 -0.13825775429443102 0.06237443001300647
0.09442413308101684 -0.11283279558714816 0.09795046881524397 0.24122038199852355 -0.25050711850521956 -0.109504614090682 -0.13366764373409146 -0.03136406221316179
0.15436293357399838 0.11465358000359857 0.11344857781915538 0.060167785486913254 0.03566696889967055 -0.0864480880701778 0.09365054750702376 -0.09344381467111251
0.16568801689656787 -0.0106888739350295 -0.10395652919465119 0.1828214601631328 0.0006792229457091527 0.1739626562086088 0.15176966402455966 -0.03752941793955828
0.010791413133538517 0.001145242579921584 -0.02284588493932917 0.21989433148798324 -0.07534998408345507 0.08916158707695006 -0.21832965721557268 0.12744153485909768
0.10408986817405316 0.07433440197498088 -0.015279555909323858 0.0764599720283708 -0.14384604164586665 0.06628969333518253 0.12531697110704426 0.0747694993274222
0.07759907771894943 -0.10178231599853789 0.008236542019628168 -0.09881678081836702 -0.049763782506763485 0.20329746401943544 0.13746607754791623 0.004836092523219976
0.18030072523320576 0.04266182955553085 -0.023551588562111186 0.07855449093749865 0.06459198526508209 0.1483208503633593 -0.10874635995964779 0.09640695252503802
0.05654374488567852 -0.006111786224407358 -0.10807678460117576 0.0790767590906442 -0.08647348975749934 0.07058242470028062 0.027021705941054606 0.03893324995020857
-0.027474624113442796 -0.09896412655578037 0.028363600253859977 -0.07166175255782033 -0.17478666701195045 -0.00840776860485037 -0.1501063752917122 -0.15252484415674664
0.12698315634241109 0.15215360174006679 -0.10043365070984513 0.0667541482179468 -0.16746814518908595 0.04540006003877966 0.039466751595325235 -0.1131111295249901
0.14261498691816987 -0.052679571580962176 0.0640668895425645 -0.05826130037707052 0.028693798768553668 0.014574596114954836 0.1497027880414948 -0.03672484118895907
0.008671245292666349 0.10752545233109968 0.059747711765582454 -0.04557678344120234 -0.011189200338720548 0.07586369568020054 -0.03313705811479053 -0.03787988642415811
-0.021351094114033714 -0.06048990052344018 0.044732707135707435 -0.138133190603165 -0.18551675681378524 -0.007310133519021036 0.00456400910670952 0.044369784472759875
0.06403410463726397 -0.042045205652440326 -0.19786766551638607 -0.02224202174021841 -0.11512172620731718 -0.1072589390583628 0.12344175996820919 0.11558838238738982
-0.010740374377126778 -0.05301667307381875 -0.06676223816719161 0.0768413264588296 -0.023498073410153676 -0.07516168002831808 0.14673183043300858 -0.044288917814234746
-0.0919919292982305 0.17438053512780238 -0.1062663881175404 0.15599932819370937 -0.0676837646986078 0.10549372627775104 0.11973145595264094 -0.0885273188027712
0.10999590283060737 -0.01775507137537391 0.004179978047942041 0.0074522539068868476 0.049604345468648954 -0.07058689558381565 -0.11701622095873836 -0.062270586795189806
-0.015835010834351796 -0.05851797948547692 0.040846288995268584 0.031188970754774684 0.003048675834189005 -0.029581131668360534 -0.00019567907981355044 0.07754655627107139
0.05208596643195649 0.024114886368070323 -0.007187701318835285 -0.11573186680138846 0.12162165325707633 0.02960688337459272 0.10123322376814499 -0.1989834183140298
0.11712143669250007 -0.00901018466950083 0.00872875405072931 -0.008484743208582281 0.032322748184344274 0.14408610891649776 0.16205200525675273 0.12831859087161765
0.0008445109548058791 0.15073352119958772 0.009488727025196413 0.014886866534661772 0.007250783980768613 -0.048620034145294595 -0.09311273741691435 0.08139097461628485
-0.0569638076317599 0.07195646838723198 -0.015333311358295503 0.02507399676840512 -0.12769862242542301 -0.04935668410879089 0.1791445636853837 0.0428473946169111
0.12930514638770466 0.047025459623159724 -0.06524093794988309 0.12132627560960618 -0.01905569432623357 -0.07215545636270784 0.01982821386360119 0.12487318150429935
-0.18046675202542925 0.042810272143079794 -0.15642453169829995 -0.18230372732778594 -0.05929682836181555 0.03491746633732212 -0.033059465569820166 0.0782867714712246
-0.04978093741000936 -0.02562601792788363 0.0761209910113448 0.03333359498576627 0.07534241401719498 0.01086843102815191 -0.14945480539360684 -0.07828847721724229
0.07118335801749769 0.147039766033434 0.0393470806916227 -0.06276327087036686 0.0854698432892958 0.14643467304831306 0.03187422240504081 -0.20400451996070756
-0.029219614684609364 -0.002521385975088565 -0.14293932578192806 -0.047286390659906634 -0.04692594011699394 -0.10408530913221155 -0.0639320617418173 0.06504866282784814
0.07586654369625365 -0.08373213396308855 0.0063233311414689205 -0.00599205484113847 0.049279189103175185 0.06332340843307066 -0.07604974286143405 -0.03209963577260745
00000000: c7a2 2aa8 23a2 be3f a68e 5011 4c31 a0bf
00000010: 6e88 142e a095 b83f 2fa2 7e6f a5aa c1bf
00000020: c748 d348 a7ec 973f 6bbb 44cc 38a8 a8bf
00000030: dba4 0591 e484 9abf 330b c361 faf0 aa3f
00000040: 486b 078d 4d5e c2bf 9c5c 1d26 8b47 a63f
00000050: e0f7 686b 2867 b83f b5db 8d21 0cb9 babf
00000060: 6a81 bca4 35d1 733f a928 9333 41ea b73f
00000070: 12cf 9812 34a7 c4bf 2229 2789 da02 8fbf
00000080: 11d3 c900 fcf9 d03f 1177 1221 84c1 933f
00000090: bf55 ea1e 53dd b63f a51c a050 8802 a0bf
000000a0: 4801 88f8 9966 a13f 5c9b 65bd 6876 d7bf
000000b0: b931 e791 fb8e b03f 1c3c 8de2 8f29 873f
000000c0: 5bff 6e1a 8160 c0bf b444 b5e2 a362 b3bf
000000d0: 5dc7 8f68 f03c b33f 55c1 1683 910e c83f
000000e0: 5d91 f0f0 d913 d33f 333b 011b eae9 cf3f
000000f0: 4976 8e1a 6eb2 c1bf e166 0692 8aef af3f
00000100: 193f 8913 2e2c b83f bd8a f62e 9ce2 bcbf
00000110: a278 302c 4813 b93f fbf8 e739 4fe0 ce3f
00000120: 8e49 5902 4f08 d0bf 17d4 4790 7e08 bcbf
00000130: d486 2f77 051c c1bf 9052 f34a f30e a0bf
00000140: de1c b523 2ac2 c33f 3e1a 7ce0 ef59 bd3f
00000150: cecf 824b f70a bd3f 4fc9 e0dd 4fce ae3f
00000160: eb6c f1e1 f042 a23f 092a 103f 7621 b6bf
00000170: b28f cb76 7bf9 b73f 40a2 0610 efeb b7bf
00000180: 1c76 f4d2 4335 c53f 882c db5f 0ce4 85bf
00000190: 13c1 1825 e59c babf f72c 3490 b166 c73f
000001a0: d969 542b bc41 463f 0215 9287 6844 c63f
000001b0: 8254 c137 306d c33f 496b 604d 0e37 a3bf
000001c0: 92ae e3f3 ce19 863f afde 4fdb 7ec3 523f
000001d0: 0580 a662 e964 97bf ad88 2859 7f25 cc3f
000001e0: d17e 64f5 224a b3bf a511 8e34 4bd3 b63f
000001f0: 6a6f bee8 39f2 cbbf 6399 2f14 0150 c03f
00000200: de0a a733 a2a5 ba3f 4944 7351 9407 b33f
00000210: cb70 6c47 e34a 8fbf 159f 5077 e192 b33f
00000220: 2f97 430e 8c69 c2bf 08bd ef80 5cf8 b03f
00000230: 9eee 44f2 620a c03f 937d 590a 1824 b33f
00000240: adad 007d 88dd b33f 155d 86e6 670e babf
00000250: 6df9 d9f4 51de 803f db2f e979 0e4c b9bf
00000260: ce9a c874 a37a a9bf 025f a9bb a605 ca3f
00000270: 7a58 b009 7d98 c13f ba7e a4b3 02cf 733f
00000280: 7d2d 291b 1814 c73f 0b02 7575 c5d7 a53f
00000290: cb8c 925a e81d 98bf dfcd 87a9 251c b43f
000002a0: 0418 4cb0 1989 b03f a011 d078 2dfc c23f
000002b0: 7af2 952b cdd6 bbbf 65ba 3344 20ae b83f
000002c0: 459b 273e 4df3 ac3f 1c79 431f ac08 79bf
000002d0: 88a2 518f ebaa bbbf 3b01 2bde 5f3e b43f
000002e0: 47bd 7a6a 2023 b6bf 1e95 c295 b011 b23f
000002f0: 2922 32fd 93ab 9b3f 36ba 8616 0fef a33f
00000300: 5b05 26d0 4e22 9cbf b1c6 0887 b655 b9bf
00000310: 60d6 f2fd 580b 9d3f 4521 9cb3 6c58 b2bf
00000320: f8ec 4bd5 685f c6bf be76 8599 1738 81bf
00000330: d745 668a af36 c3bf 5988 bd20 ef85 c3bf
00000340: e016 d1eb fb40 c03f dd99 b8eb c479 c33f
00000350: d177 370d 05b6 b9bf 41ea 77c3 cc16 b13f
00000360: 5dbd 5a9f 986f c5bf c7bb 343a ad3e a73f
00000370: d536 c36e fc34 a43f 959a 1fda d9f4 bcbf
00000380: 30d3 5d38 3541 c23f 540d 371a d1f8 aabf
00000390: 837d 570b b066 b03f ebe0 7bd7 6cd4 adbf
000003a0: 935b 3c3d e861 9d3f 0a41 542d 49d9 8d3f
000003b0: 030e 6101 7629 c33f 97f9 b62f 99cd a2bf
000003c0: 2bad 94d7 3ac2 813f 09eb 3fbd c986 bb3f
000003d0: 9e88 1688 4097 ae3f 1576 ac14 d755 a7bf
000003e0: d881 2f0c 5dea 86bf be70 e69b cd6b b33f
000003f0: a300 c729 57f7 a0bf 6664 bc12 fe64 a3bf
00000400: a87a d0ab 0fdd 95bf 7212 f940 88f8 aebf
00000410: b137 6b94 34e7 a63f 3dfd 1030 59ae c1bf
00000420: 5106 b059 03bf c7bf b623 4c06 3bf1 7dbf
00000430: 8ba4 a1dd b5b1 723f d36d 7bea a2b7 a63f
00000440: 96e5 3e01 8a64 b03f c42e 76fe f286 a5bf
00000450: 5214 2a48 ba53 c9bf 8777 e2cf 9cc6 96bf
00000460: 1f97 1e11 9e78 bdbf 5796 7563 5275 bbbf
00000470: 122e 0612 e199 bf3f f3c0 2642 3397 bd3f
00000480: e48b 92a5 0cff 85bf 3153 fd59 0025 abbf
00000490: 872d 897d 5417 b1bf fa36 1f88 dfab b33f
000004a0: 2a31 4303 e10f 98bf 9c50 a2bd cb3d b3bf
000004b0: 82f9 7ece 1bc8 c23f c4bb 2c7b 09ad a6bf
000004c0: bef3 d477 c88c b7bf f468 b7f3 1952 c63f
000004d0: 37fe a025 4634 bbbf 2a1d 6536 c9f7 c33f
000004e0: 27c6 d923 b953 b1bf 4bce 4b08 a301 bb3f
000004f0: 8b7a 9e7f b8a6 be3f d87a 0ff3 b9a9 b6bf
00000500: caf8 5905 b128 bc3f a0dd 94ab 622e 92bf
00000510: a1f8 3850 061f 713f ee2d fc2c 4186 7e3f
00000520: 99fe 0da3 bd65 a93f 0404 0f98 fb11 b2bf
00000530: db89 1e6a c6f4 bdbf de7d 932b eee1 afbf
00000540: a150 a996 0d37 90bf 867a 3c90 11f6 adbf
00000550: e697 cb06 cee9 a43f 24f6 8c65 00f0 9f3f
00000560: 1456 2060 89f9 683f 858a 6024 844a 9ebf
00000570: 3c90 227f e6a5 29bf 6507 1a53 17da b33f
00000580: edc5 cf04 03ab aa3f d7c2 30a1 92b1 983f
00000590: 03a5 90e1 d970 7dbf 8f59 0487 9aa0 bdbf
000005a0: 0a7f 39bf 9822 bf3f 604a 524f 4451 9e3f
000005b0: 3d53 5aa9 6bea b93f 2172 0de5 4978 c9bf
000005c0: 073c 41a4 abfb bd3f a633 e483 ee73 82bf
000005d0: 9d30 7689 61e0 813f c13c c4f4 7260 81bf
000005e0: 68b9 bc74 9b8c a03f 2058 cde2 6971 c23f
000005f0: ca1b 6abf 1ebe c43f 6396 a15b be6c c03f
00000600: 79f0 4b77 45ac 4b3f 9048 fb6b 3c4b c33f
00000610: 76f7 0762 d36e 833f 8814 4067 017d 8e3f
00000620: 7d8d 1581 ffb2 7d3f 313c 2ba1 b9e4 a8bf
00000630: 65f3 0b82 3cd6 b7bf 5fa0 2af6 09d6 b43f
00000640: d007 ab35 5c2a adbf 2d75 7536 bd6b b23f
00000650: b60b 9636 1267 8fbf 94b7 6670 ffac 993f
00000660: 66dd 87af 6d58 c0bf 3e2a 2c80 4745 a9bf
00000670: 0178 2485 35ee c63f ae66 32fd 17f0 a53f
00000680: 9147 782f 128d c03f 8e59 5296 b813 a83f
00000690: b2e8 da4e a1b3 b0bf 8884 e321 3d0f bf3f
000006a0: e527 bcff 5583 93bf f247 4ead c778 b2bf
000006b0: 353c 54e8 d84d 943f 2e5c b556 b0f7 bf3f
000006c0: b776 fbd6 8819 c7bf 7624 935d 3aeb a53f
000006d0: 20d9 f713 b805 c4bf 2ae7 6781 ba55 c7bf
000006e0: 991b 2465 275c aebf b8b9 f4bf b3e0 a13f
000006f0: bb27 e496 2bed a0bf 65a7 2d13 9a0a b43f
00000700: 04ca 4714 e37c a9bf 9737 b5f3 b43d 9abf
00000710: 55ce ee4e aa7c b33f 00da a4d8 1911 a13f
00000720: 8f9e 34f4 a349 b33f 7013 991e 3042 863f
00000730: 8ea2 b2c6 5521 c3bf ff3b 4db1 b60a b4bf
00000740: 7361 b492 1239 b23f 929c 29f5 32d2 c23f
00000750: 9bf5 86f1 4c25 a43f 1b39 c7f3 4011 b0bf
00000760: f4c5 b805 5ae1 b53f 3919 df11 5fbe c23f
00000770: 4352 a16d d151 a03f 5cd4 bbf2 d11c cabf
00000780: 0d73 e325 bfeb 9dbf 1d14 b7c9 baa7 64bf
00000790: 89d8 c5f8 d54b c2bf 6740 dcfa eb35 a8bf
000007a0: 04e9 4544 ad06 a8bf ad86 b7b6 55a5 babf
000007b0: 3fd2 5802 da5d b0bf df7f 7e77 07a7 b03f
000007c0: f634 0964 fd6b b33f e1e9 fe18 786f b5bf
000007d0: af2b 4547 7ee6 793f caa6 41f9 1f8b 78bf
000007e0: 7fa0 2433 1f3b a93f ec91 4a80 f635 b03f
000007f0: 8785 75f6 fe77 b3bf 72b6 b60b 5d6f a0bf

net.4.bias f8 [64]
-0.0035217279623051775 0.03226057830738608 0.093420380934095 -0.01123479842896234 0.07586364756254523 -0.08633611311069214 -0.022474882118249252 -0.005531523203634812
-0.09698936892005697 -0.12304361985494057 0.05719941342362139 0.04655924147157347 -0.06926250508281193 0.009322720311627517 0.11825057869515104 0.06694105832110883
0.022174408028644933 -0.02132698987331648 -0.012754018498079542 -0.1917452827649685 0.02736070765411 0.03070749022525442 0.03531814177172021 0.031248745796068244
0.02982444815837133 -0.12451168361949938 0.002457230364739616 0.07470518277219099 -0.08286584486535928 -0.051550041350703235 0.06081825860634216 -0.09032756571824808
-0.10838202674116483 -0.01522893900853 0.035935845168185196 -0.13921064296188804 -0.031494778097995876 0.060910631530660515 0.11207492933570937 -0.140056858255023
-0.018917628769067885 -0.03286813047692252 0.06335816675597679 -0.01800637120701053 0.010632984562217907 0.08229205433393691 -0.0493485362842015 0.06466366492610369
-0.06596336529326155 -0.09053937107750598 0.055747073431621996 0.04056228239198619 -0.100013498507309 -0.06650295004236315 0.10312887510953146 -0.006822555375681043
0.05174448104199409 0.09307788372323751 -0.05880101666113949 -0.08480687053511407 -0.04313199241182134 -0.07383148549346961 -0.1274601595577815 0.11334865929162091
00000000: b563 8d4d 99d9 6cbf 957f 8f61 7584 a03f
00000010: 004d e4e8 65ea b73f b7e8 a21e 4502 87bf
00000020: d584 3ccd cc6b b33f a230 469e 1f1a b6bf
00000030: caa3 b7ce a703 97bf fe58 1bf4 38a8 76bf
00000040: 4242 9297 4bd4 b8bf 3528 4263 c97f bfbf
00000050: 087a 02d4 3d49 ad3f e7d9 e4e6 9cd6 a73f
00000060: 2e72 2b02 30bb b1bf 851a c956 ca17 833f
00000070: 3c8f 3a80 ab45 be3f c6b0 3f98 0c23 b13f
00000080: aa2d 2a55 e3b4 963f 9cb0 1c10 bed6 95bf
00000090: b811 bc62 c71e 8abf d4a3 5103 1c8b c8bf
000000a0: b87e 4702 7204 9c3f bdf0 09c9 c871 9f3f
000000b0: 30e5 ba2f 3815 a23f 13c6 f0d4 abff 9f3f
000000c0: f386 d8d5 4c8a 9e3f 289b 1d69 ffdf bfbf
000000d0: 9bf9 c481 2f21 643f c227 d9fc e01f b33f
000000e0: d6f1 a62d b236 b5bf 18dd 6a5b c464 aabf
000000f0: a085 6d1f 9223 af3f 21ea af14 b51f b7bf
00000100: 11d7 53ac ecbe bbbf dc8f f497 5930 8fbf
00000110: 56c1 80df 2e66 a23f 7162 6383 a7d1 c1bf
00000120: 56f1 d963 1520 a0bf 0948 cea4 ad2f af3f
00000130: 36c9 324c f1b0 bc3f 2096 e414 62ed c1bf
00000140: e028 8693 245f 93bf 2345 f572 17d4 a0bf
00000150: 6dc4 26a6 3d38 b03f dda2 d01d 4370 92bf
00000160: 67f8 a007 bfc6 853f eebc 1592 1711 b53f
00000170: 2969 e41a 3644 a9bf b3dc 1846 cc8d b03f
00000180: 4a2d aba0 f9e2 b0bf 703e c795 962d b7bf
00000190: 101a 7962 e18a ac3f bb3e a658 94c4 a43f
000001a0: 0858 3f11 7c9a b9bf 16fc 845b 5606 b1bf
000001b0: 8563 de69 a766 ba3f b84f 6bc3 f7f1 7bbf
000001c0: 89d0 a5ab 407e aa3f 6d7b 92c2 f3d3 b73f
000001d0: 44f2 0fb7 2a1b aebf daa6 6c2f e7b5 b5bf
000001e0: 35e3 a381 6515 a6bf 7f0b 9cc7 9ee6 b2bf
000001f0: 86fb 6b50 9d50 c0bf 14f5 b3f0 6a04 bd3f
